PINN/Flow_in_Cavity.pt (torch, 519979 bytes, 13 tensors)

il.weight f4 [20, 3]
0.3096882 0.21262306 0.30911794 -0.09608915 -0.32265005 -0.4277839 -0.03666654 0.45602438
-0.20611367 -0.3213567 0.41022795 -0.10696607 0.39145505 0.683321 -0.17344834 0.32572213
0.5905502 -0.02716312 0.4531572 0.49919587 0.19398727 0.5087048 0.059857465 -0.22873515
-0.61972165 0.34800604 0.06986249 0.4344404 -0.3005503 0.07940416 -0.060266335 -0.57828903
0.078754716 -0.5584159 -0.21939522 0.39995664 0.3979266 0.13212006 -0.4355511 -0.24805965
0.070590094 0.047089502 -0.5933682 -0.09688563 -0.06654399 -0.483302 -0.39823154 0.31053177
0.078057714 0.55718565 -0.39608786 0.2526947 -0.21919748 0.5292358 -0.20748581 0.39749938
0.0598873 0.08503743 0.17806166 0.43214035
00000000: 748f 9e3e dcb9 593e b544 9e3e 63ca c4bd
00000010: 6332 a5be 7e06 dbbe a72f 16bd 077c e93e
00000020: 760f 53be de88 a4be 6609 d23e 0711 dbbd
00000030: cc6c c83e 20ee 2e3f 719c 31be 0dc5 a63e
00000040: 4c2e 173f 3185 debc 3804 e83e 9a96 ff3e
00000050: 99a4 463e 7a3a 023f 1a2d 753d 8c39 6abe
00000060: 14a6 1ebf d92d b23e 1114 8f3d f96e de3e
00000070: bbe1 99be a69e a23d d5d9 76bd c00a 14bf
00000080: 274a a13d 58f4 0ebf 24a9 60be 1ec7 cc3e
00000090: 09bd cb3e 7b4a 073e 8e00 dfbe 5903 7ebe
000000a0: 8a91 903d ece0 403d fae6 17bf f96b c6bd
000000b0: 3748 88bd 5c73 f7be 01e5 cbbe 05fe 9e3e
000000c0: b9dc 9f3d b8a3 0e3f 07cc cabe 3361 813e
000000d0: 4e75 60be ff7b 073f 2977 54be 0a85 cb3e
000000e0: 634c 753d 1b28 ae3d cc55 363e 8041 dd3e

il.bias f4 [20]
-0.34751958 0.08739435 0.20667017 0.48270974 0.60810775 0.11943948 -0.3888406 -0.3255324
0.3005405 0.42599553 -0.15451968 0.16721526 -0.00048901705 -0.074767746 -0.19971645 -0.67793614
-0.12997806 -0.48698744 -0.4995605 -0.06581996
00000000: 16ee b1be cffb b23d 58a1 533e bb25 f73e
00000010: f3ac 1b3f b09c f43d 1d16 c7be 2fac a6be
00000020: 72e0 993e 161c da3e 683a 1ebe 7a3a 2b3e
00000030: 6131 00ba d51f 99bd 7882 4cbe 398d 2dbf
00000040: f818 05be 6b56 f9be 65c6 ffbe 9dcc 86bd

hl1.weight f4 [200, 20]
-0.2003749 -0.011776323 0.15425523 -0.18347412 0.07082878 -0.06028186 -0.06958512 -0.024871055
-0.07134048 0.010469087 -0.25212166 -0.005621328 -0.09541351 0.0004683446 -0.19677402 0.03170158
-0.018360874 0.10269663 0.22063705 -0.006863518 0.025332835 0.1395124 -0.21986236 0.18989196
-0.02026632 -0.23535939 -0.08594432 -0.12348884 -0.12514001 0.21756624 0.16600078 -0.0984141
-0.10640045 0.022077965 -0.037936542 -0.18806492 -0.15770054 -0.14710256 -0.16901012 0.11665997
0.062440053 -0.1878373 0.038932495 0.05143883 -0.10014783 0.023005933 9.513014e-06 -0.14256147
-0.014243276 0.13153858 -0.023838993 -0.06514277 -0.16935761 0.1548071 -0.036929898 0.10798262
-0.005571058 -0.11711707 -0.08275023 0.14386167 -0.111834034 0.029492863 -0.17494455 -0.056154426
0.15232083 0.05707211 0.124132305 0.13876548 -0.20937064 0.14856066 -0.22962312 -0.052644007
-0.17811793 0.0909002 -0.16016598 0.15614848 -0.0098470785 0.07691323 -0.0064650257 -0.07743523
-0.10925611 0.101705685 -0.08746515 -0.20146509 -0.1408112 0.1983423 -0.09609151 0.05021997
-0.004335588 0.024254821 -0.055505265 -0.049639583 0.12355369 0.046275966 0.21059765 -0.012000195
0.09110345 -0.1065559 0.11301395 -0.20632811 -0.117659785 0.009125873 -0.034620985 -0.077912994
0.11097497 0.121135496 0.013013002 0.03049539 0.10219477 0.040500425 0.1554288 -0.11825532
0.03221975 -0.06724698 0.13111016 -0.12312515 -0.050510388 0.18023612 0.038837723 -0.22225605
-0.050052598 -0.20614861 -0.15321189 0.1934828 -0.15737233 -0.013323928 0.06013498 0.089514636
0.0664399 -0.15773147 -0.1923238 -0.13678658 0.07965349 0.16514154 -0.13256261 -0.18308702
-0.17321463 -0.17443232 -0.00592639 -0.18565223 -0.186453 -0.11123141 0.06611931 -0.00011491076
-0.107272975 0.07336773 -0.19892314 0.024610152 -0.16434836 0.059070926 -0.06747601 0.020453056
-0.110844694 0.1827579 0.026750004 -0.1911527 0.08563459 0.17472334 -0.09187539 -0.12893443
0.032506842 -0.13935891 -0.09531785 -0.21625523 0.16478075 0.02371086 -0.093710646 -0.06847013
-0.11510635 -0.20837241 -0.056396548 0.113715135 0.13270628 -0.08207491 -0.189269 0.12405857
0.02326255 -0.2054796 0.22308214 -0.14495598 0.101570316 -0.21328993 0.12328012 -0.09986445
0.040077273 0.18894233 -0.06253833 0.20429307 -0.14694269 -0.14624749 -0.06538606 -0.05354147
-0.14616007 0.09938722 0.13868682 0.19824705 0.18752411 0.11127825 -0.08089905 -0.00087875495
-0.22118528 0.18900491 -0.21355088 -0.06994507 -0.096664295 0.22123274 -0.055514615 0.11630709
0.105607234 0.18820004 -0.23924226 0.14638036 0.15027189 0.13895185 0.16799814 0.113097444
0.22481969 0.07384649 0.077994265 -0.015742518 0.007914433 -0.013416529 -0.15163492 -0.13427566
-0.15357073 0.06768325 -0.054771 0.039639365 -0.12780628 0.08211619 -0.031306155 -0.10698523
0.12936437 0.1712448 -0.22425215 -0.12735143 -0.015730705 0.009254261 -0.056116715 0.08871299
-0.058618683 -0.22885549 0.18183185 0.12960422 -0.007279267 0.060076583 0.07536392 0.14101118
-0.21142706 0.19234551 -0.027420139 -0.22171831 -0.21175906 -0.2355987 -0.10224291 0.2172477
00000000: 142f 4dbe 7bf1 40bc 15f5 1d3e a4e0 3bbe
00000010: ae0e 913d 1dea 76bd a582 8ebd 62be cbbc
00000020: f51a 92bd 8986 2b3c 1716 81be 1e33 b8bb
00000030: 2968 c3bd 268c f539 217f 49be 84d9 013d
00000040: 8b69 96bc 9c52 d23d aeee 613e 5de7 e0bb
00000050: ce86 cf3c 57dc 0e3e 9923 61be 0a73 423e
00000060: 8e05 a6bc 0d02 71be 9303 b0bd b8e7 fcbd
00000070: b424 00be afc9 5e3e 1cfc 293e 558d c9bd
00000080: 7be8 d9bd d9dc b43c 5963 1bbd 1794 40be
00000090: 407c 21be 0ea2 16be fd10 2dbe 6ceb ee3d
000000a0: 24c1 7f3d 6c58 40be ae77 1f3d 86b1 523d
000000b0: 4e1a cdbd f076 bc3c 169a 1f37 a2fb 11be
000000c0: a15c 69bc 0db2 063e fe49 c3bc 9369 85bd
000000d0: 156c 2dbe c185 1e3e ce43 17bd fe25 dd3d
000000e0: 6c8d b6bb 13db efbd f478 a9bd 7950 133e
000000f0: 3e09 e5bd 049b f13c aa24 33be 2f02 66bd
00000100: fef9 1b3e 72c4 693d 1439 fe3d 8a18 0e3e
00000110: 4265 56be 4920 183e 5322 6bbe 3ea1 57bd
00000120: 8c64 36be e229 ba3d 8d02 24be 63e5 1f3e
00000130: a455 21bc af84 9d3d 91d8 d3bb 5d96 9ebd
00000140: abc1 dfbd 124b d03d ee20 b3bd dd4c 4ebe
00000150: d030 10be 3e1a 4b3e a0cb c4bd 75b3 4d3d
00000160: 8c11 8ebb 0cb2 c63c 7d59 63bd e052 4bbd
00000170: b809 fd3d de8b 3d3d e9a6 573e 779c 44bc
00000180: 7294 ba3d fb39 dabd dc73 e73d ad47 53be
00000190: 9df7 f0bd b084 153c bcce 0dbd d990 9fbd
000001a0: d846 e33d e315 f83d 7d34 553c 78d1 f93c
000001b0: 7e4b d13d c6e3 253d ba28 1f3e d82f f2bd
000001c0: dbf8 033d c9b8 89bd be41 063e 0a29 fcbd
000001d0: fbe3 4ebd d18f 383e 4e14 1f3d 1797 63be
000001e0: f403 4dbd 9f18 53be 94e3 1cbe 5b20 463e
000001f0: 3626 21be 9b4c 5abc 1950 763d 7353 b73d
00000200: a411 883d 5c84 21be 88f0 44be c811 0cbe
00000210: 5e21 a33d dd1a 293e 7ebe 07be 2a7b 3bbe
00000220: 2d5f 31be 639e 32be 2a32 c2bb 9e1b 3ebe
00000230: 89ed 3ebe 4bcd e3bd 9069 873d 3ffc f0b8
00000240: efb1 dbbd d241 963d 82b2 4bbe 3b9b c93c
00000250: f04a 28be 5bf4 713d dd30 8abd 2b8d a73c
00000260: 8b02 e3bd e324 3b3e d322 db3c 89bd 43be
00000270: 3061 af3d adea 323e 2a29 bcbd 6307 04be
00000280: e525 053d 1ab4 0ebe 0136 c3bd 0372 5dbe
00000290: 49bc 283e 473d c23c 5eeb bfbd 113a 8cbd
000002a0: e1bc ebbd 945f 55be 1100 67bd 7be3 e83d
000002b0: 28e4 073e e416 a8bd bccf 41be 6b12 fe3d
000002c0: 1a91 be3c 3f69 52be a56f 643e 576f 14be
000002d0: 1904 d03d ad68 5abe 4a7a fc3d bc85 ccbd
000002e0: 1128 243d 197a 413e 1914 80bd 3432 513e
000002f0: 2578 16be e7c1 15be 20e9 85bd 4d4e 5bbd
00000300: fcaa 15be 878b cb3d eb03 0e3e 4601 4b3e
00000310: 5206 403e dae5 e33d 67ae a5bd 3f5c 66ba
00000320: 657e 62be 818a 413e 15ad 5abe 5c3f 8fbd
00000330: eef7 c5bd d68a 623e 4b63 63bd 6932 ee3d
00000340: 9b48 d83d 83b7 403e ecfb 74be bce4 153e
00000350: e0e0 193e 6549 0e3e b407 2c3e a29f e73d
00000360: 2237 663e d43c 973d 75bb 9f3d 74f6 80bc
00000370: 8aab 013c 00d1 5bbc 2f46 1bbe 8f7f 09be
00000380: a541 1dbe 849d 8a3d 8e57 60bd e35c 223d
00000390: a6df 02be 882c a83d e23a 00bd 131b dbbd
000003a0: 1878 043e cc5a 2f3e 5ba2 65be 6a68 02be
000003b0: aedd 80bc 2f9f 173c a4da 65bd 28af b53d
000003c0: 251a 70bd 1859 6abe 2132 3a3e f8b6 043e
000003d0: eb86 eebb dd12 763d 6658 9a3d 3c65 103e
000003e0: 5680 58be 39f6 443e 33a0 e0bc 200a 63be
000003f0: 5ed7 58be c940 71be bb64 d1bd 2e76 5e3e

hl1.bias f4 [200]
0.18435337 0.15935916 -0.047295265 -0.08623949 -0.04867085 0.22386032 -0.18447661 0.18771113
0.20456399 -0.10031612 0.09819746 -0.20950726 0.08972588 0.01821881 -0.081088945 -0.1709554
-0.2584336 -0.048121903 0.1027478 -0.012251679 -0.13178892 -0.13464908 -0.02789115 -0.19851698
0.18751636 0.027225932 -0.16090125 0.08553367 0.08421238 0.18689704 -0.00049896474 0.04607182
-0.15183856 -0.122829914 0.17071144 0.096140705 -0.14870068 0.059595753 0.17967933 0.0784305
-0.17328154 -0.036254574 0.15656349 -0.22297962 -0.081515044 0.11238391 -0.16153762 0.082596175
-0.035872284 0.20707703 -0.10875916 0.18535449 -0.10330391 0.014573415 -0.0063354173 0.18286256
0.16831197 -0.22010414 -0.1455476 0.13871191 -0.16617295 -0.033235412 0.16577722 0.07291758
-0.016299399 -0.0013679866 -0.06709719 -0.16866961 0.21088101 0.21291347 0.15661812 -0.007337375
0.16914943 -0.1852029 0.03389336 0.15635554 -0.16014488 0.033449687 0.09881605 -0.20596233
-0.22005895 -0.011425149 0.14629118 0.1356495 0.13144879 -0.15713592 -0.007025539 0.16548082
-0.024115846 0.05002777 -0.18297209 -0.106884524 0.21971256 -0.19724996 -0.15814851 0.0987759
-0.0028043205 0.009121374 0.08460025 -0.10612207 0.20653988 0.09055836 -0.10797901 0.08214624
0.11826924 0.006024996 0.017269948 -0.09661348 -0.024856396 -0.13314244 -0.05486083 0.20330195
0.111532025 0.02416842 -0.117979296 0.012072124 -0.047004268 -0.18117195 0.050114825 0.16995129
0.08705149 -0.22609209 -0.11203119 -0.0030535234 0.2062461 -0.17105716 0.105645284 0.18128051
-0.23166704 0.18438783 0.19178751 -0.15724957 -0.13822955 0.08690541 0.20497724 -0.02145907
0.08102469 0.025009178 0.1224287 -0.18884242 0.15129533 0.03594022 -0.07695419 0.080676645
-0.15634032 -0.1869253 0.033447634 -0.13324851 0.21501678 0.014745109 -0.22145526 0.108162545
-0.064638145 -0.21887137 0.11652669 -0.17785433 0.10752459 0.0897941 0.13715175 0.20461836
0.15701997 -0.057813942 -0.20339741 -0.13968377 0.12078667 -0.228586 0.18821037 -0.12671585
0.028850786 -0.0054767006 0.20388114 -0.067584336 0.21016149 -0.07694957 0.103516854 0.085767314
-0.107384205 0.21670991 -0.16628294 0.11199376 0.0649767 0.023002021 0.24561772 0.17607667
0.063655965 0.11324383 0.12831423 -0.17919764 -0.081538506 -0.062046446 -0.10424425 -0.025029492
0.07543775 0.20821202 -0.13487689 -0.08336347 -0.0054700025 0.07254008 0.1440558 0.14966264
00000000: 21c7 3c3e 0c2f 233e aeb8 41bd 549e b0bd
00000010: 165b 47bd a43b 653e 70e7 3cbe 5937 403e
00000020: 3979 513e 8a72 cdbd c01b c93d 1289 56be
00000030: 34c2 b73d 9d3f 953c f611 a6bd ef0e 2fbe
00000040: 6951 84be 791b 45bd 706d d23d 44bb 48bc
00000050: adf3 06be 73e1 09be fb7b e4bc 0948 4bbe
00000060: 4a04 403e eb08 df3c 4cc3 24be 472c af3d
00000070: 8a77 ac3d f061 3f3e f5cc 02ba ceb5 3c3d
00000080: 917b 1bbe 408e fbbd fbce 2e3e 6be5 c43d
00000090: fe44 18be ad1a 743d dcfd 373e 2ca0 a03d
000000a0: b770 31be ad7f 14bd 2e52 203e c554 64be
000000b0: 5cf1 a6bd 8929 e63d 1e6a 25be 2f28 a93d
000000c0: d1ee 12bd 000c 543e 1fbd debd 91cd 3d3e
000000d0: 0091 d3bd 55c5 6e3c 5599 cfbb 5340 3b3e
000000e0: f959 2c3e fb62 61be 6e0a 15be 7f0a 0e3e
000000f0: 3e29 2abe db21 08bd 81c1 293e d055 953d
00000100: 5186 85bc 034e b3ba 406a 89bd bab7 2cbe
00000110: 31f1 573e fd05 5a3e 8060 203e 5d6e f0bb
00000120: 8235 2d3e d4a5 3dbe c4d3 0a3d ab1b 203e
00000130: 05fd 23be 8a02 093d 1260 ca3d cae7 52be
00000140: 2257 61be 8c30 3bbc 5bcd 153e b4e7 0a3e
00000150: 839a 063e 3de8 20be 7e36 e6bb ce73 293e
00000160: 988e c5bc ebe9 4c3d 095d 3bbe 46e6 dabd
00000170: 54fc 603e e5fb 49be aff1 21be 054b ca3d
00000180: b1c8 37bb d171 153c e542 ad3d 8756 d9bd
00000190: 317f 533e a976 b93d 1924 ddbd 4a3c a83d
000001a0: 2537 f23d 546d c53b b579 8d3c 4add c5bd
000001b0: a49f cbbc 7e56 08be c0b5 60bd 632e 503e
000001c0: e76a e43d dafc c53c 219f f1bd 28ca 453c
000001d0: 8c87 40bd 2485 39be 3445 4d3d b607 2e3e
000001e0: 0d48 b23d af84 67be 9c70 e5bd 9f1d 48bb
000001f0: 2d32 533e 9c29 2fbe 8e5c d83d 99a1 393e
00000200: 203a 6dbe 2ad0 3c3e f263 443e 0806 21be
00000210: 0c8c 0dbe 77fb b13d 8ee5 513e eeca afbc
00000220: 46f0 a53d 0ce0 cc3c e6bb fa3d e85f 41be
00000230: 2aed 1a3e 0d36 133d 299a 9dbd cc39 a53d
00000240: ad17 20be 5969 3fbe 6300 093d 4c72 08be
00000250: 5c2d 5c3e 7895 713c 2bc5 62be 5384 dd3d
00000260: 0161 84bd d11f 60be 8ca5 ee3d 721f 36be
00000270: da35 dc3d f8e5 b73d 8271 0c3e 7a87 513e
00000280: d8c9 203e 50ce 6cbd 6947 50be 4309 0fbe
00000290: 005f f73d 7312 6abe 38ba 403e cdc1 01be
000002a0: 7c58 ec3c e575 b3bb 38c6 503e a869 8abd
000002b0: 9334 573e bc97 9dbd a500 d43d c6a6 af3d
000002c0: 40ec dbbd 34e9 5d3e 1346 2abe fc5c e53d
000002d0: 8112 853d bc6e bc3c 3683 7b3e 714d 343e
000002e0: 0f5e 823d 62ec e73d ce64 033e 967f 37be
000002f0: a9fd a6bd 6a24 7ebd 027e d5bd a60a cdbc
00000300: 1b7f 9a3d 8835 553e 2b1d 0abe 78ba aabd
00000310: b53d b3bb e58f 943d 5d83 133e 2a41 193e

hl2.weight f4 [200, 200]
-0.059900638 0.016231187 0.028119551 0.040389676 -0.05507309 0.07138874 -0.0033503524 0.034734074
0.014302259 -0.02428398 0.012283427 -0.062589005 -0.009436132 0.04928509 0.04523733 0.045263633
-0.043095164 -0.035159003 0.07388659 -0.008646107 -0.016821187 -0.022313107 -0.043646347 0.025359852
-0.02859146 0.019987313 -0.05966114 0.017811831 -0.018730737 0.009697665 0.009490944 -0.016946996
-0.029141132 0.06917611 -0.021930452 0.036671042 -0.042932883 -0.07260177 0.052622456 -0.01244227
-0.0050505316 0.06544085 -0.053621527 -0.026773544 0.014363807 -0.032879826 0.0056448765 0.006926468
-0.02749188 0.002496977 -0.043256667 -0.06528265 0.04944544 0.044961296 -0.029618211 0.0014288331
0.04191734 -0.07015233 0.0019206669 0.037004005 0.042750593 0.056581303 -0.04054724 -0.0073049385
0.038485333 0.014227483 0.059449427 0.008865696 -0.054493003 0.0019034 -0.021033252 -0.05842479
0.029566558 0.0224113 -0.060373224 0.066051506 0.01807959 0.017947502 -0.04556496 0.07944553
0.02757834 0.05439581 0.032234553 0.005919385 -0.026424635 -0.03727353 -0.01453728 0.05638683
-0.051776532 0.022566263 -0.014396322 -0.060730714 0.024914708 -0.063266955 0.0033100536 -0.014660588
0.008610383 -0.03708064 0.053852707 -0.04386072 0.044309147 -0.017890565 -0.06310266 -0.07297547
0.06352367 -0.04259018 -0.028773742 -0.036117274 -0.039507043 -0.011213045 0.007161215 -0.009504362
-0.062067993 0.034724094 0.011130203 0.002830889 0.016217621 0.0218934 0.022658208 -0.01839639
-0.039961368 0.040959958 -0.006239314 0.03136701 -0.046009004 0.057956573 -0.051942594 0.07943822
0.00083859626 -0.026674572 0.007989041 0.058735736 0.02059224 0.06471688 -0.0017033335 -0.035717178
-0.061781384 0.020301787 0.05158768 -0.033033498 0.019599097 -0.02203292 -0.011765223 -0.02444468
-0.025880266 -0.030739898 0.043232143 -0.06255451 -0.043074656 0.010299957 0.06413782 -0.03368901
0.01872867 0.0152059775 -0.022344701 -0.07057301 0.03484145 -0.038819384 -0.052501377 -0.02306852
0.023462959 -0.023191776 -0.031677343 -0.009335342 -0.0568521 0.0149789555 0.01962067 -0.050613455
0.042108163 0.042209994 -0.021887677 0.058651946 -0.063254245 -0.04131892 -0.06760795 0.0368619
0.044447113 -0.0015448295 0.018423466 -0.0505075 0.015789744 -0.039350543 0.06614935 -0.011620177
0.002294432 0.030592596 0.06589199 0.036304865 -0.0038073987 0.062082298 -0.06669075 -0.02028321
0.025158007 -0.017347828 -0.013975394 -0.0030336552 0.030070012 -0.063752465 -0.051297925 0.06646925
-0.0063233566 0.21215193 -0.01466417 0.053367436 -0.06291497 -0.04077025 -0.10450212 0.1161701
-0.04205034 -0.014951019 -0.08612458 -0.12658238 0.08865001 -0.07289199 0.12353925 -0.022207772
-0.12690528 -0.03523022 0.055066288 -0.0702348 0.09503148 0.071890734 -0.039180126 -0.12360986
-0.062931165 -0.033334404 -0.15650924 0.018807305 -0.03215437 0.1257052 -0.04030397 0.008564021
-0.17100173 0.015399161 0.047767736 -0.038494825 -0.094050124 0.04565809 0.056866474 0.046589725
-0.037978284 0.019127663 -0.06661224 0.08418081 -0.05072432 -0.05043495 -0.09911819 -0.029463783
0.057667855 -0.12229618 -0.08222232 -0.02368008 0.018937014 0.00501995 0.041399587 0.07213047
00000000: 5f5a 75bd 44f7 843c f95a e63c a56f 253d
00000010: 5294 61bd 4234 923d 9691 5bbb 5145 0e3d
00000020: 0654 6a3c 32ef c6bc 6d40 493c aa2e 80bd
00000030: 029a 1abc 2adf 493d c74a 393d 5c66 393d
00000040: 8e84 30bd e302 10bd da51 973d 67a8 0dbc
00000050: 96cc 89bc fac9 b6bc 83c6 32bd 77bf cf3c
00000060: a338 eabc 6fbc a33c 3d5f 74bd 1eea 913c
00000070: 3471 99bc f5e2 1e3c e87f 1b3c 6dd4 8abc
00000080: 62b9 eebc 34ac 8d3d 7ea7 b3bc 6034 163d
00000090: 64da 2fbd 3db0 94bd a58a 573d aada 4bbc
000000a0: ee7e a5bb da05 863d 3fa2 5bbd 3154 dbbc
000000b0: 2c56 6b3c ffac 06bd a8f8 b83b 6df7 e23b
000000c0: a736 e1bc 53a4 233b e72d 31bd e9b2 85bd
000000d0: 4d87 4a3d 5629 383d e4a1 f2bc af47 bb3a
000000e0: 84b1 2b3d 06ac 8fbd e3be fb3a 8391 173d
000000f0: 3f1b 2f3d ccc1 673d dd14 26bd 445e efbb
00000100: cca2 1d3d 641a 693c 3e81 733d 6d41 113c
00000110: 0e34 5fbd 827b f93a ed4d acbc d54e 6fbd
00000120: 9135 f23c e797 b73c ea49 77bd 0346 873d
00000130: a61b 943c a406 933c 53a2 3abd 57b4 a23d
00000140: f9eb e13c 24ce 5e3d 6108 043d 66f7 c13b
00000150: 7a78 d8bc 21ac 18bd c62d 6ebc e0f5 663d
00000160: a113 54bd e2dc b83c 8dde 6bbc c5c0 78bd
00000170: ee19 cc3c 1b92 81bd 7ced 583b f732 70bc
00000180: 9012 0d3c dfe1 17bd a894 5c3d 4ca7 33bd
00000190: 827d 353d 3c8f 92bc f83b 81bd 2a74 95bd
000001a0: b318 823d 0a73 2ebd e9b6 ebbc b5ef 13bd
000001b0: 23d2 21bd ebb6 37bc a0a8 ea3b 2fb8 1bbc
000001c0: 023b 7ebd da3a 0e3d 745b 363c 7086 393b
000001d0: d1da 843c ca59 b33c b59d b93c 07b4 96bc
000001e0: 88ae 23bd a1c5 273d 2973 ccbb b27a 003d
000001f0: f073 3cbd df63 6d3d c2c1 54bd 81b0 a23d
00000200: 3ed5 5b3a a284 dabc 77e4 023c e294 703d
00000210: 0fb1 a83c 498a 843d 6342 dfba 2d4c 12bd
00000220: 7a0e 7dbd ef4f a63c 9a4d 533d 224e 07bd
00000230: 498e a03c 627e b4bc ecc2 40bc 3640 c8bc
00000240: da02 d4bc 3dd2 fbbc 3014 313d 941c 80bd
00000250: 0d6f 30bd 27c1 283c b05a 833d 7dfd 09bd
00000260: de6c 993c 7e22 793c 3c0c b7bc 9588 90bd
00000270: e9b5 0e3d 1301 1fbd af0b 57bd 31fa bcbc
00000280: 6435 c03c aefc bdbc 1ac0 01bd 43f3 18bc
00000290: bfdd 68bd 4b6a 753c 87bb a03c 0e50 4fbd
000002a0: 9c79 2c3d 63e4 2c3d c94d b3bc 063d 703d
000002b0: 718b 81bd 073e 29bd 0976 8abd 81fc 163d
000002c0: 2d0e 363d e07b caba cfec 963c f4e0 4ebd
000002d0: 7e59 813c 092e 21bd 4f79 873d 8e62 3ebc
000002e0: 2e5e 163b 539d fa3c 61f2 863d 69b4 143d
000002f0: 8d85 79bb 024a 7e3d 2995 88bd f928 a6bc
00000300: 2a18 ce3c 081d 8ebc 0df9 64bc 4ad0 46bb
00000310: 6355 f63c a790 82bd c61d 52bd 0821 883d
00000320: 2934 cfbb 5b3e 593e fd41 70bc d097 5a3d
00000330: 90d9 80bd b5fe 26bd 3505 d6bd 97ea ed3d
00000340: fa3c 2cbd 1ef5 74bc 1562 b0bd d09e 01be
00000350: 238e b53d 6548 95bd 2502 fd3d 13ed b5bc
00000360: 75f3 01be 904d 10bd 308d 613d 43d7 8fbd
00000370: dd9f c23d 733b 933d 577b 20bd 2b27 fdbd
00000380: 0ee2 80bd a889 08bd f543 20be c711 9a3c
00000390: 4db4 03bd ddb8 003e c715 25bd 1c50 0c3c
000003a0: 141b 2fbe c34c 7c3c 1aa8 433d c0ac 1dbd
000003b0: 5a9d c0bd fa03 3b3d d2ec 683d ded4 3e3d
000003c0: 1e8f 1bbd 9eb1 9c3c 006c 88bd fd66 ac3d
000003d0: 4ec4 4fbd e194 4ebd 7afe cabd 085e f1bc
000003e0: 2135 6c3d 6b76 fabd 2d64 a8bd bafc c1bc
000003f0: cc21 9b3c 657e a43b 9d92 293d 24b9 933d

hl2.bias f4 [200]
0.057119306 0.008987348 0.07352484 0.030031849 0.035056863 -0.0469743 0.02236415 0.0035818552
0.017956669 -0.0366366 0.04143312 0.03331293 0.069363676 0.007514397 0.020038396 -0.041605327
0.03689224 -0.017502526 -0.013316156 -0.045342833 -0.004771935 0.059617 0.047052663 0.0036733402
0.074595 0.022697713 -0.07198383 -0.04347091 0.062833525 -0.025094492 0.004695346 -0.015632749
-0.0700594 -0.051966615 -0.059932847 0.05780137 0.04720457 -0.076272964 -0.013654583 -0.008884758
0.017406063 0.05170471 0.024767067 0.017909447 0.058302555 -0.029108899 0.03741819 -0.06833096
0.011316947 0.063232735 -0.01767445 -0.022895684 0.0033652876 0.025246732 -0.039288454 -0.043147784
-0.056732718 -0.028558511 -0.06851162 0.056464564 0.0736236 -0.068934016 0.00022380159 0.054939836
-0.052757215 0.05349294 -0.00925364 0.042575587 0.062645815 -0.037238535 0.0144901 0.048633493
0.027646098 0.058414843 0.018876579 0.032730706 -0.012179338 0.053447183 0.020583188 0.04165725
0.023447344 -0.02315157 0.042700578 -0.053178534 0.053163584 -0.01214483 -0.05385042 0.020247433
-0.04802937 -0.029378813 0.0321113 0.026730152 0.056506097 -0.061179243 -0.023023175 0.02815019
0.011290912 -0.013167363 0.039854493 0.04932849 0.036736265 0.0064326576 0.042608645 -0.0028431986
0.034895588 -0.020456882 -0.028477939 -0.011371927 -0.009906668 0.034372494 -0.00051612925 -0.034529787
0.053296283 0.01923483 0.017096914 0.055557024 0.012100103 -0.04013223 -0.0050766384 0.06434691
0.011797066 -0.009711711 -0.046559468 0.04713614 0.047060084 0.04035552 -0.0045343623 -0.031719957
0.06618061 -0.04972481 -0.09028284 0.045311764 0.032184456 0.0034964306 0.010650396 -0.02156129
0.035618413 -0.036065552 -0.014564312 0.03367109 -0.06323117 0.07102753 -0.0050915736 -0.018602
0.056635942 0.0065552313 0.036257036 -0.056192234 -0.024802824 0.0041135764 0.060084324 -0.021675099
-0.0705836 0.039621934 0.008853054 -0.08544813 -0.035367966 -0.014448625 -0.010488848 -0.022191858
-0.035518818 -0.008503529 -0.076716825 -0.0683743 0.009483831 -0.04640813 -0.018119158 -0.077746324
0.030097423 0.06650994 -0.06036085 -0.07958639 -0.02859226 0.059047595 0.05401071 0.0061659194
-0.06557798 -0.022911599 -0.07379724 0.024200305 0.016452529 -0.039985824 0.04855401 -0.06638394
0.016030831 0.03193847 -0.05517123 -0.04701833 0.035679802 -0.0393822 0.057187714 0.054139573
0.019680707 0.0012489269 0.014506593 0.056033436 -0.062532544 0.01920165 -0.055483047 0.0097095985
00000000: eff5 693d ab3f 133c 3194 963d 5a05 f63c
00000010: c997 0f3d 2068 40bd 0635 b73c 8fbd 6a3b
00000020: dd19 933c 4210 16bd c6b5 293d 2473 083d
00000030: 8b0e 8e3d 553b f63b 9027 a43c 596a 2abd
00000040: 511c 173d 7561 8fbc 022c 5abc 68b9 39bd
00000050: e45d 9cbb f530 743d 4bba 403d 6cbc 703b
00000060: 43c5 983d 8ef0 b93c 426c 93bd 8e0e 32bd
00000070: ddae 803d f792 cdbc 6bdb 993b 4010 80bc
00000080: 4d7b 8fbd f2da 54bd 257c 75bd 21c1 6c3d
00000090: 9459 413d 0035 9cbd 79b7 5fbc 6091 11bc
000000a0: 2997 8e3c 51c8 533d 4ee4 ca3c d5b6 923c
000000b0: a9ce 6e3d c975 eebc d143 193d 1af1 8bbd
000000c0: b76a 393c 2a80 813d 02ca 90bc bb8f bbbc
000000d0: 288c 5c3b 3cd2 ce3c eeec 20bd bbbb 30bd
000000e0: 9160 68bd 8af3 e9bc d24f 8cbd 6347 673d
000000f0: f8c7 963d 472d 8dbd 48ac 6a39 9808 613d
00000100: f317 58bd 6a1b 5b3d 949c 17bc bd63 2e3d
00000110: 734c 803d 6f87 18bd e267 6d3c ea33 473d
00000120: 127a e23c 6744 6f3d 0ea3 9a3c a210 063d
00000130: d98b 47bc 6feb 5a3d 139e a83c cba0 2a3d
00000140: a514 c03c 5da8 bdbc cde6 2e3d bcd1 59bd
00000150: 0fc2 593d 1cfb 46bc 4292 5cbd f2dd a53c
00000160: 72ba 44bd d6ab f0bc 2387 033d 31f9 da3c
00000170: f072 673d 1697 7abd 199b bcbc 3a9b e63c
00000180: 84fd 383c ecbb 57bc 773e 233d ac0c 4a3d
00000190: c478 163d 0bc9 d23b 6786 2e3d f554 3abb
000001a0: adee 0e3d 3195 a7bc 914a e9bc 5251 3abc
000001b0: 944f 22bc 2cca 0c3d d94c 07ba 1b6f 0dbd
000001c0: 344d 5a3d 5d92 9d3c d40e 8c3c c38f 633d
000001d0: 833f 463c b161 24bd ee59 a6bb 50c8 833d
000001e0: 7b48 413c de1d 1fbc 24b5 3ebd d311 413d
000001f0: 13c2 403d d44b 253d fd94 94bb c9ec 01bd
00000200: b389 873d 3eac 4bbd 36e6 b8bd d498 393d
00000210: d9d3 033d 5f24 653b 007f 2e3c 4da1 b0bc
00000220: 9de4 113d 79b9 13bd 279f 6ebc b2ea 093d
00000230: 587f 81bd e276 913d 37d7 a6bb 3963 98bc
00000240: 17fb 673d 44cd d63b 4282 143d d429 66bd
00000250: 4b2f cbbc 2ecb 863b fb1a 763d fa8f b1bc
00000260: 228e 90bd 9c4a 223d 660c 113c 6eff aebd
00000270: 00de 10bd edb9 6cbc 6bd9 2bbc b3cb b5bc
00000280: 2e7c 11bd 6352 0bbc b61d 9dbd d307 8cbd
00000290: 1262 1b3c 7416 3ebd a16e 94bc 7739 9fbd
000002a0: df8e f63c 5d36 883d f03c 77bd 30fe a2bd
000002b0: 513a eabc e4db 713d 563a 5d3d 7b0b ca3b
000002c0: bf4d 86bd 1bb1 bbbc 0223 97bd b83f c63c
000002d0: 74c7 863c 2dc8 23bd 92e0 463d 4ef4 87bd
000002e0: 1753 833c ead1 023d 3afb 61bd 4b96 40bd
000002f0: fc24 123d 3b4f 21bd aa3d 6a3d 75c1 5d3d
00000300: 6f39 a13c 08b3 a33a 10ad 6d3c 5183 653d
00000310: 1011 80bd c74c 9d3c 3142 63bd 0215 1f3c

hl3.weight f4 [200, 200]
-0.044291746 0.01364187 -0.06776411 -0.0573513 0.037557237 0.028849525 0.046487607 -0.03492339
0.059855226 0.024798153 -0.022299359 0.017237468 -0.008341407 -0.0626277 -0.032719497 -0.017989013
-0.045153502 0.06810087 -0.06215202 -0.003230518 -0.038576912 -0.066778444 0.018171981 0.06271721
-0.056891438 0.012139748 0.047655657 -0.055148892 -0.05065838 0.023183936 0.03604884 -0.02674766
0.048466086 0.0009758937 0.013376532 -0.06669052 0.055295885 -0.018417623 0.0014125853 -0.042370472
-0.010867477 -0.039204013 -0.04588251 -0.01440153 0.009607851 -0.03492136 0.0037214463 -0.060298756
-0.04289284 -0.05335302 0.048642017 0.008377167 0.071168914 -0.026649652 0.030009603 -0.001420491
-0.021657525 0.04091418 0.0024159485 0.030130336 0.014904697 -0.06261866 -0.021189481 0.026795749
-0.011280781 0.020016074 -0.060481213 -0.016452573 0.006372565 -0.02168706 -0.016673796 -0.058189586
0.05491911 -0.07266535 -0.048272733 -0.0029156287 -0.00061857695 0.00094190316 0.025516288 0.030690586
0.034819335 0.04575113 -0.046210866 -0.02779013 -0.054496672 -0.039121438 0.05498524 0.00258048
0.03404286 0.048443124 0.064492345 0.025884362 0.022884982 -0.041044824 0.07204247 -0.04109499
0.05649804 -0.058270328 0.0262071 -0.08553988 -0.018841796 -0.0026895148 -0.05528809 -0.04733376
-0.058845665 -0.015984358 0.027902694 -0.038954377 0.0026286088 0.056455635 0.046495385 -0.059641507
0.058742445 0.06537728 -0.05490263 -0.07390084 0.053798728 -0.07488581 -0.04994708 -0.025894463
0.0613487 0.070293516 -0.02277862 0.019052394 -0.064165175 0.0036055772 -0.03720044 0.012053246
0.013875895 -0.037308298 0.029932007 0.06545914 -0.025684077 0.031444304 0.04078037 0.028776916
-0.038998473 0.04873054 0.024705444 -0.023204591 -0.030630773 0.059256442 -0.04313184 0.005335341
0.04080774 0.016162204 -0.0518729 -0.046777528 0.009305178 0.00807802 0.06366683 0.057427756
0.02943009 -0.007499248 -0.022647394 0.04376399 0.005980434 -0.057996556 0.0023890014 -0.007170724
0.03212037 0.044474605 -0.0154854655 0.041546542 -0.059931707 -0.03218385 -0.012419099 -0.008869529
-0.01783299 0.08186792 0.002936787 -0.046718694 0.034795836 0.020352174 0.034119006 0.016546763
-0.04813901 0.020896804 0.023962548 0.004455793 -0.05497128 0.024835365 0.026729824 -0.014029358
0.05255949 0.02243076 -0.044737514 0.04231676 0.009971737 0.04078161 0.056543913 0.025602993
0.03734187 0.0506634 0.023159461 0.021923719 -0.038016003 -0.023898536 0.010982942 -0.02849073
-0.08426114 0.024613978 0.07536554 0.03990258 0.013572987 -0.05550672 -0.014312951 -0.040258233
0.05374313 0.074363746 -0.038839787 0.04229302 -0.028689096 -0.061017573 0.036590654 0.033741977
-0.052635632 -0.06666439 0.021109518 0.069808304 0.012784717 0.02081782 -0.072752275 0.052404802
0.06498224 0.02559982 -0.020312138 0.03934136 0.0023498223 0.03304945 -0.022130786 0.05326931
0.05215926 0.039984114 -0.04935128 -0.037460748 0.054778803 0.041014332 -0.020277144 0.044525463
0.028438551 0.040249135 -0.0042314986 0.011708704 -0.058255777 -0.02779681 -0.03624026 0.008975596
-0.030818282 0.041466985 0.018137554 0.052295715 -0.021395026 0.08760176 0.01496418 -0.014539866
00000000: 436b 35bd 2682 5f3c e9c7 8abd 32e9 6abd
00000010: 9ed5 193d d755 ec3c ca69 3e3d d40b 0fbd
00000020: c12a 753d 7f25 cb3c 25ad b6bc 9735 8d3c
00000030: 66aa 08bc f442 80bd e104 06bd b25d 93bc
00000040: e1f2 38bd 7878 8b3d 1e93 7ebd 19b7 53bb
00000050: d302 1ebd 23c3 88bd 68dd 943c e171 803d
00000060: ff06 69bd cbe5 463c 9432 433d cee3 61bd
00000070: 297f 4fbd 3dec bd3c f3a7 133d e91d dbbc
00000080: 6084 463d 1ed3 7f3a 3e29 5b3c 0a95 88bd
00000090: f07d 623d 8ee0 96bc 7f26 b93a a98c 2dbd
000000a0: 810d 32bc 6394 20bd 4cef 3bbd 65f4 6bbc
000000b0: 3f6a 1d3c b309 0fbd 82e3 733b d4fb 76bd
000000c0: 67b0 2fbd b288 5abd da3c 473d 6340 093c
000000d0: 02c1 913d 5f50 dabc b3d6 f53c c52f baba
000000e0: 1f6b b1bc a195 273d e454 1e3b e5d3 f63c
000000f0: d532 743c 363e 80bd 9095 adbc c282 db3c
00000100: 06d3 38bc c0f8 a33c 26bb 77bd 8cc7 86bc
00000110: f3d0 d03b 10a9 b1bc 7c97 88bc 3458 6ebd
00000120: dcf2 603d 92d1 94bd a1b9 45bd 2214 3fbb
00000130: ff27 22ba 0dea 763a 8907 d13c d36a fb3c
00000140: b89e 0e3d 8965 3b3d 9b47 3dbd 20a8 e3bc
00000150: e737 5fbd cd3d 20bd 3438 613d 451d 293b
00000160: 8770 0b3d 4c6c 463d 9014 843d 710b d43c
00000170: 4979 bb3c 9e1e 28bd 018b 933d 3853 28bd
00000180: 7d6a 673d deac 6ebd 46b0 d63c 882f afbd
00000190: 1c5a 9abc 9242 30bb c475 62bd 0be1 41bd
000001a0: 2708 71bd a1f1 82bc 3194 e43c a08e 1fbd
000001b0: bd44 2c3b 063e 673d f271 3e3d a74a 74bd
000001c0: eb9b 703d 86e4 853d 95e1 60bd 5359 97bd
000001d0: 0e5c 5c3d bb5d 99bd 4f95 4cbd a020 d4bc
000001e0: c648 7b3d 0cf6 8f3d 3a9a babc c413 9c3c
000001f0: 0869 83bd 8c4b 6c3b 7d5f 18bd fa7a 453c
00000200: b957 633c 96d0 18bd f833 f53c 710f 863d
00000210: 6a67 d2bc becb 003d 5109 273d 91bd eb3c
00000220: ddbc 1fbd ad99 473d 1263 ca3c 8e17 bebc
00000230: 63ed fabc e2b6 723d 03ab 30bd 16d4 ae3b
00000240: 0426 273d 9966 843c ae78 54bd cb99 3fbd
00000250: bf74 183c ac59 043c c163 823d 5e39 6b3d
00000260: 5f17 f13c 40bc f5bb 0787 b9bc df41 333d
00000270: 84f7 c33b cc8d 6dbd cb90 1c3b 65f8 eabb
00000280: a690 033d 012b 363d c0b6 7dbc b52c 2a3d
00000290: f37a 75bd 36d3 03bd 7a79 4bbc 8051 11bc
000002a0: 7e16 92bc 5eaa a73d 1c77 403b 1a5c 3fbd
000002b0: 1486 0e3d 9ab9 a63c 5fc0 0b3d 148d 873c
000002c0: 692d 45bd c62f ab3c 1b4d c43c e701 923b
000002d0: 9129 61bd 8973 cb3c 81f8 da3c 64db 65bc
000002e0: 9f48 573d b7c0 b73c af3e 37bd 5754 2d3d
000002f0: 7f60 233c 9e0a 273d 979a 673d 5ebd d13c
00000300: caf3 183d 6d84 4f3d e9b8 bd3c 5f99 b33c
00000310: abb6 1bbd ddc6 c3bc ccf1 333c 6465 e9bc
00000320: 1b91 acbd 41a3 c93c 4059 9a3d e370 233d
00000330: 3c61 5e3c 045b 63bd de80 6abc d1e5 24bd
00000340: c221 5c3d 054c 983d 7816 1fbd 723b 2d3d
00000350: 6505 ebbc 90ed 79bd 15e0 153d 0735 0a3d
00000360: 7698 57bd 5787 88bd deed ac3c a8f7 8e3d
00000370: fd76 513c 228a aa3c 25ff 94bd 6ba6 563d
00000380: 6915 853d b7b6 d13c a465 a6bc 6824 213d
00000390: 7aff 193b dc5e 073d 9f4b b5bc ec30 5a3d
000003a0: f3a4 553d 62c6 233d 9124 4abd 7170 19bd
000003b0: bd5f 603d a5fe 273d 411c a6bc 5560 363d
000003c0: f7f7 e83c 47dc 243d 62a8 8abb ddd5 3f3c
000003d0: 9c9d 6ebd 23b6 e3bc ab70 14bd 610e 133c
000003e0: 9f76 fcbc 49d9 293d 3595 943c 0834 563d
000003f0: 9f44 afbc 8d68 b33d 522c 753c 9e38 6ebc

hl3.bias f4 [200]
-0.03860033 -0.028519556 -0.033377666 -0.008342404 0.06302491 0.009899487 -0.049467325 0.037343238
0.07082166 0.022394994 -0.0689062 -0.055268012 -0.06537923 -0.043817904 -0.024606608 0.07690593
-0.060948305 0.029439682 0.064203 -0.02923458 0.03358598 -0.018648706 -0.053780522 -0.01635922
0.050108384 -0.013165477 0.021886328 -0.013609538 0.03240527 -0.050394077 -0.003768507 0.039455086
-0.028151033 -0.053236846 -0.040733702 -0.06481143 0.039748482 0.09494123 0.05482204 -0.03982697
-0.045611914 -0.016093507 -0.057510983 -0.01645894 -0.028741503 0.018769601 0.025315957 0.06781479
0.03774168 0.06621315 0.057369296 -0.011264655 -0.026352193 0.012726842 -0.06979891 0.04811655
-0.020131864 -0.071452826 -0.03938746 -0.020890184 -0.030168312 -0.036280178 -0.06821979 0.004760983
-0.029058894 0.042760123 0.054700036 0.046857603 -0.07161858 0.045745254 0.041415736 -0.025830952
-0.018836329 0.060697716 0.073854074 0.03408403 0.08561245 0.060409285 0.015305523 0.026269274
-0.04998207 0.03870697 -0.01274447 0.044341832 -0.025911663 0.034908984 0.0068407347 -0.08052756
0.042869546 0.036200173 0.057954323 0.06816416 0.0065233717 0.0014291361 -0.019526508 0.01761821
0.05216425 -0.014498257 -0.07980729 -0.052836675 -0.037064582 -0.033413943 0.010896939 -0.046678264
0.007661667 -0.0036360126 0.053083684 -0.038799454 -0.05792109 -0.032816347 -0.03783822 0.010220313
-0.05563244 0.027298233 -0.069724455 -0.0705605 -0.027882678 0.0036737353 0.077158645 -0.024930926
0.07509743 -0.027049512 0.026788652 0.03693808 0.07638294 0.0013343659 -0.07922099 -0.079426445
0.010689567 -0.0013475758 0.056724902 -0.03756165 -0.00040164383 0.04324919 -0.04561728 -0.045312583
-0.05835934 0.0005917543 -0.040126473 0.04733175 -0.030020844 0.008659017 0.045147635 0.04998682
0.0071010874 -0.009502957 -0.047973406 -0.05266162 -0.032799922 -0.009432874 -0.028805088 -0.030999284
0.02041107 -0.050647732 -0.05980434 0.027143551 0.013079237 -0.013000257 -0.059804536 0.009772317
-0.029062107 -0.053790424 0.03492586 0.025629882 -0.07076057 -0.0015026035 0.07227182 -0.06301186
0.03992797 0.0036854423 0.050351053 -0.01802884 -0.04491823 0.041659493 0.03116533 -0.018609634
-0.0068983864 0.07139129 -0.030134263 -0.018513294 -0.029197121 -0.054176614 -0.019980034 0.0655075
-0.036001373 0.041331783 0.061306644 0.046349403 0.02888997 0.0032670514 -0.008774767 0.0051905373
0.056792375 -0.021292275 -0.0056570643 -0.036929507 -0.039956823 -0.070005685 0.016779002 0.059935443
00000000: 611b 1ebd d8a1 e9bc 05b7 08bd 94ae 08bc
00000010: 3413 813d 7531 223c 409e 4abd 39f5 183d
00000020: f20a 913d b575 b73c b21e 8dbd b660 62bd
00000030: 8ce5 85bd 677a 33bd cc93 c9bc db80 9d3d
00000040: eea4 79bd 7d2b f13c dd7c 833d 5c7d efbc
00000050: 7491 093d 2cc5 98bc f748 5cbd c503 86bc
00000060: 733e 4d3d 03b4 57bc f54a b33c 8afa 5ebc
00000070: 63bb 043d 056a 4ebd 0ef9 76bb a89b 213d
00000080: ff9c e6bc e10e 5abd 62d8 26bd dbbb 84bd
00000090: 4ecf 223d 8c70 c23d 138d 603d 9b21 23bd
000000a0: 8fd3 3abd 88d6 83bc a390 6bbd e6d4 86bc
000000b0: 4d73 ebbc b5c2 993c 6963 cf3c 7be2 8a3d
000000c0: 0597 1a3d c39a 873d 11fc 6a3d 638f 38bc
000000d0: 8ee0 d7bc 3f84 503c bbf2 8ebd dc15 453d
000000e0: 94eb a4bc dc55 92bd bf54 21bd e421 abbc
000000f0: 8923 f7bc 869a 14bd d1b6 8bbd 0502 9c3b
00000100: eb0c eebc 3d25 2f3d 250d 603d c2ed 3f3d
00000110: c3ac 92bd 605f 3b3d 8ca3 293d 6f9b d3bc
00000120: a54e 9abc 2b9e 783d ce40 973d b29b 0b3d
00000130: 9555 af3d ba6f 773d 04c4 7a3c a932 d73c
00000140: 00ba 4cbd 338b 1e3d 2ece 50bc c89f 353d
00000150: b244 d4bc b9fc 0e3d 3e28 e03b a2eb a4bd
00000160: fa97 2f3d a246 143d 8361 6d3d a799 8b3d
00000170: 02c2 d53b da51 bb3a 0ef6 9fbc 1054 903c
00000180: 2eaa 553d 198a 6dbc 0172 a3bd 456b 58bd
00000190: 08d1 17bd 0fdd 08bd 1389 323c b531 3fbd
000001a0: b90e fb3b 2b4a 6ebb 476e 593d 2dec 1ebd
000001b0: aa3e 6dbd 6f6a 06bd 40fc 1abd 1a73 273c
000001c0: d7de 63bd 8ba0 df3c b2cb 8ebd 0682 90bd
000001d0: 376a e4bc 0dc3 703b 5a05 9e3d f13b ccbc
000001e0: aecc 993d f096 ddbc e073 db3c 624c 173d
000001f0: a96e 9c3d e4e5 ae3a 9d3e a2bd 55aa a2bd
00000200: 4b23 2f3c 24a1 b0ba 5f58 683d 3fda 19bd
00000210: b993 d2b9 1026 313d 2fd9 3abd b099 39bd
00000220: 340a 6fbd f51f 1b3a a85b 24bd f0de 413d
00000230: 46ee f5bc 8dde 0d3c baec 383d fbbe 4c3d
00000240: 3db0 e83b 4ab2 1bbc c37f 44bd b6b3 57bd
00000250: 3659 06bd 578c 1abc a6f8 ebbc 36f2 fdbc
00000260: 1e35 a73c ff73 4fbd 65f5 74bd 275c de3c
00000270: 4c4a 563c 08ff 54bc 9af5 74bd 111c 203c
00000280: a813 eebc 5953 5cbd 6b0e 0f3d c2f5 d13c
00000290: ebea 90bd 02f3 c4ba 3f03 943d 5d0c 81bd
000002a0: 838b 233d 7687 713b e83c 4e3d 38b1 93bc
000002b0: 2efc 37bd 25a3 2a3d 6f4e ff3c 3b73 98bc
000002c0: dc0b e2bb 9935 923d 21dc f6bc 31a9 97bc
000002d0: cd2e efbc 4ce8 5dbd 2bad a3bc cc28 863d
000002e0: 2d76 13bd 844b 293d ad1c 7b3d dfd8 3d3d
000002f0: a9aa ec3c 071c 563b 0ac4 0fbc 6215 aa3b
00000300: 1f9f 683d 236d aebc e55e b9bb 6543 17bd
00000310: c4a9 23bd 245f 8fbd 1e74 893c de7e 753d

hl4.weight f4 [200, 200]
-0.02128134 -0.05960008 0.040528264 0.025610361 -0.012427213 -0.07367578 0.044160422 -0.059141867
0.014368237 0.031050872 -0.037369084 0.053845372 0.061771233 -0.05332083 -0.065378636 0.026580194
0.037073787 0.059392557 0.0016863812 -0.05978891 0.058080986 -0.05886927 0.032810394 -0.003444411
0.06860886 0.044286806 -0.052636404 0.07008134 -0.02342518 0.066231295 0.039172024 -0.02915721
0.0059883366 -0.03936498 -0.014249812 -0.044733543 -0.012508058 0.026531773 0.029349662 0.0044852495
-0.025153011 -0.014726487 -0.08023228 -0.043353315 -0.06646527 -0.057960883 -0.04704872 -0.0003893942
-0.0654427 0.07091468 -0.022341076 -0.0025857168 -0.014072976 0.030880278 0.023676593 -0.0072525567
-0.035457708 -0.04359865 0.046808925 0.0064410875 -0.04964517 0.07607025 -0.046218716 -0.0010992544
-0.05426465 0.023182107 -0.043295763 0.045534883 -0.031485103 0.067948334 0.065040566 -0.008515052
0.05375764 -0.008854714 -0.023115369 0.03735563 0.033636983 -0.044556145 0.058468785 -0.026428927
-0.05430763 -0.06979856 0.046118736 -0.015749093 0.061606735 0.034080423 -0.018922556 -0.0036934356
0.010071684 0.04024646 -0.023324884 -0.020329788 0.03638902 -0.0045664585 0.031006476 0.04672094
-0.023801928 -0.043208398 0.012393998 0.033895142 -0.033520646 0.01360072 0.02561371 0.040470794
0.013825365 0.039152592 0.057486366 0.05217704 -0.029161612 0.021716345 -0.03069423 -0.03894488
-0.0470896 0.011007661 0.028601527 -0.049608994 0.03477447 0.02626201 -0.04732086 0.013376171
-0.0028808299 -0.05320677 0.033616643 -0.07557489 -0.015386601 0.025175247 -0.03429952 0.056168284
-0.04159251 0.01607481 -0.05270161 0.020989176 0.01062517 -0.024534374 0.038296998 0.012924203
-0.061762042 0.010090404 0.037747353 0.0141449915 -0.0025647432 0.04118203 -0.0072651915 0.03578488
-0.06778393 0.0640146 -0.038728993 -0.0013942306 -0.056450915 -0.050492637 -0.03816065 0.05461754
-0.051440235 -0.060315523 -0.0037517222 0.009847645 0.014354117 -0.049790513 -0.034106016 -0.051675614
0.030786699 0.01966877 -0.0371787 0.049822584 -0.045077164 0.015854372 0.023528446 -0.036867566
0.0010341059 -0.0027824952 -0.058336303 0.026072722 -0.026222996 0.004669551 0.018618142 -0.060057152
0.0674764 0.051302377 -0.03786873 -0.010252501 -0.007212543 0.05715363 0.056733727 0.043735825
0.033483904 0.056929905 0.030272309 -0.0035446298 -0.04678997 -0.070900835 0.06331321 0.05671727
-0.0583867 -0.0020278855 -0.027099006 -0.06805716 0.010942709 0.0028576995 -0.054383148 -0.047145657
0.02799122 -0.06361378 -0.046475984 0.028901178 -0.024432054 0.07373194 -0.039648835 -0.038194135
0.009196571 0.014504523 0.011742393 -0.012622657 -0.023579359 -0.016216723 0.017860027 -0.075803995
0.07249126 0.08013439 0.037688084 -0.010228908 0.024577636 0.023224376 0.044230934 0.04063891
0.075747974 0.027322182 -0.013278601 -0.0069271633 0.08233373 0.045830447 0.07263499 0.0639022
0.0108656995 -0.024263503 0.02799323 -0.014404189 0.06414163 -0.0092400815 0.02985865 0.022094551
-0.067697495 -0.053884853 -0.02831871 -0.008231928 0.028247012 -0.010435595 -0.05955754 -0.022608122
-0.06308363 -0.0048081074 -0.06088645 -0.0019069772 -0.021832868 -0.02570407 -0.036802586 0.028113909
00000000: 3456 aebc 371f 74bd f700 263d d2cc d13c
00000010: 829b 4bbc 54e3 96bd 8fe1 343d be3e 72bd
00000020: c168 6b3c 665e fe3c 5310 19bd f78c 5c3d
00000030: d503 7d3d f166 5abd 3ce5 85bd b5be d93c
00000040: afda 173d 9c45 733d 9009 dd3a 37e5 74bd
00000050: 54e6 6d3d e720 71bd 3164 063d a1bb 61bb
00000060: cd82 8c3d 1566 353d 4599 57bd ce86 8f3d
00000070: 2ae6 bfbc 46a4 873d d872 203d 1adb eebc
00000080: cf39 c43b 2c3d 21bd 0b78 69bc 853a 37bd
00000090: 99ee 4cbc 2959 d93c b46e f03c 00f9 923b
000000a0: b00d cebc 5d47 71bc d250 a4bd 3f93 31bd
000000b0: f21e 88bd 6468 6dbd 29b6 40bd 9b27 ccb9
000000c0: d306 86bd b73b 913d a204 b7bc 2175 29bb
000000d0: 5792 66bc a3f8 fc3c 6af5 c13c dba6 edbb
000000e0: 1a3c 11bd 7f94 32bd b7ba 3f3d c20f d33b
000000f0: bc58 4bbd b8ca 9b3d d64f 3dbd db14 90ba
00000100: 9c44 5ebd 67e8 bd3c e656 31bd c982 3a3d
00000110: 86f6 00bd 7f28 8b3d fd33 853d b782 0bbc
00000120: f930 5c3d 5d13 11bc 715c bdbc 3802 193d
00000130: efc6 093d 8180 36bd f77c 6f3d 7a81 d8bc
00000140: ad71 5ebd 8cf2 8ebd 00e7 3c3d 3e04 81bc
00000150: 5857 7c3d ea97 0b3d 7a03 9bbc 910d 72bb
00000160: b403 253c 79d9 243d d413 bfbc a88a a6bc
00000170: a70c 153d 3ba2 95bb 4b01 fe3c 755e 3f3d
00000180: 43fc c2bc 4afb 30bd 3210 4b3c a2d5 0a3d
00000190: f24c 09bd 8ed5 5e3c d8d3 d13c b4c4 253d
000001a0: c983 623c 785e 203d d376 6b3d 98b7 553d
000001b0: 55e4 eebc 7ae6 b13c 7772 fbbc ab84 1fbd
000001c0: 06e1 40bd 7a59 343c c04d ea3c cd32 4bbd
000001d0: ad6f 0e3d 6d23 d73c 85d3 41bd ba27 5b3c
000001e0: 4ecc 3cbb 58ef 59bd 9bb1 093d 02c7 9abd
000001f0: 1518 7cbc 523c ce3c a77d 0cbd b710 663d
00000200: e85c 2abd 52af 833c a5dd 57bd 7ef1 ab3c
00000210: 3115 2e3c 50fc c8bc 50dd 1c3d 09c0 533c
00000220: 32fa 7cbd 3952 253c f89c 1a3d 65c0 673c
00000230: 4015 28bb 7dae 283d d810 eebb 2b93 123d
00000240: 4dd2 8abd 161a 833d 4ba2 1ebd 9ebe b6ba
00000250: 1339 67bd 5ed1 4ebd 574e 1cbd a4b6 5f3d
00000260: ffb2 52bd 690d 77bd 74df 75bb 0458 213c
00000270: 882d 6b3c 23f1 4bbd c0b2 0bbd cfa9 53bd
00000280: 6334 fc3c 6620 a13c b148 18bd c412 4c3d
00000290: d5a2 38bd 07e1 813c babe c03c 7202 17bd
000002a0: d68a 873a 865a 36bb 0cf2 6ebd 7696 d53c
000002b0: 9cd1 d6bc 0803 993b 1385 983c 7dfe 75bd
000002c0: 1131 8a3d 7122 523d 3e1c 1bbd 1bfa 27bc
000002d0: 3257 ecbb ed19 6a3d a061 683d 5624 333d
000002e0: 6b26 093d 552f 693d a2fd f73c 054d 68bb
000002f0: d7a6 3fbd 7534 91bd 5baa 813d 5e50 683d
00000300: e426 6fbd 46e6 04bb bcfe ddbc 8d61 8bbd
00000310: 0c49 333c 3e48 3b3b ddc0 5ebd ce1b 41bd
00000320: d84d e53c f147 82bd 9a5d 3ebd 2ac2 ec3c
00000330: bb25 c8bc c500 973d d166 22bd 7471 1cbd
00000340: 37ad 163c 61a4 6d3c 2a63 403c 43cf 4ebc
00000350: 8029 c1bc efd8 84bc 314f 923c 203f 9bbd
00000360: 4c76 943d 801d a43d d25e 1a3d 2697 27bc
00000370: 0a57 c93c 0c41 be3c 7f2b 353d fc74 263d
00000380: c121 9b3d c5d2 df3c 7d8e 59bc 42fd e2bb
00000390: 969e a83d b5b8 3b3d a7c1 943d 28df 823d
000003a0: 0c06 323c 41c4 c6bc 0f52 e53c 8cff 6bbc
000003b0: b05c 833d b663 17bc 219a f43c a2ff b43c
000003c0: fca4 8abd 5db6 5cbd a4fc e7bc 35df 06bc
000003d0: 4766 e73c 0ffa 2abc 9bf2 73bd ab34 b9bc
000003e0: fd31 81bd 548d 9dbb 1264 79bd 89f3 f9ba
000003f0: d8da b2bc 5891 d2bc 4fbe 16bd 244f e63c

hl4.bias f4 [200]
0.032755718 -0.011687889 -0.06871095 -0.02104265 0.07712755 0.016970988 0.026553368 -0.04512815
0.058501985 0.03895096 0.033949718 0.048198618 -0.03240394 -0.025836064 0.014856744 0.020853626
-0.07961477 0.024062196 -0.031240636 -0.0037063414 0.03274029 -0.009087792 0.025078997 -0.036456946
0.000942482 -0.018732551 0.0076146824 -0.0119787315 0.06951987 0.03443698 0.060946096 -0.00205091
0.016532224 -0.06245634 -0.019747576 0.06107883 0.06364909 0.002320137 0.041162167 -0.04432032
-0.013560437 -0.056075998 -0.07510196 0.04129851 0.07249641 0.027682133 -0.017148511 0.045990977
-0.02949272 0.011244977 0.07566285 0.061185554 -0.06601147 0.00246863 0.07329036 0.052412286
-0.033891324 0.053873617 -0.072002545 0.014193425 0.038540557 0.06629369 0.050083004 0.005189274
0.018669775 0.03421015 -0.026387708 -0.016174871 0.04088235 0.0054518753 -0.072115354 0.020697698
-0.06724878 0.010595088 -0.011434427 0.079565674 -0.031832486 -0.0025219375 -0.016153412 -0.04974636
-0.025118388 -0.03855869 -0.048355583 -0.039307013 -0.041638706 0.042799983 0.07716096 0.03290898
-0.038449965 -0.061535306 0.054849595 -0.003108691 0.052689265 0.036730703 -0.013220207 0.04374646
-0.06719569 -0.063655846 -0.008189124 0.020450741 -0.07455952 0.008291878 -0.043888647 -0.053900704
0.091630444 0.030000962 -0.06840481 0.013599829 0.0069668675 -0.0034969114 0.06251902 -0.010585132
-0.06252549 -0.00628007 0.04962665 0.08206227 0.036247663 -0.021834688 0.061694767 0.07586098
-0.036108796 0.040881127 0.0796287 0.05359725 0.05776854 -0.08566933 0.06452343 -0.06083245
-0.032689545 -0.074597664 0.039926037 -0.03137639 0.0050757057 -0.051576078 0.06526404 0.06702446
-0.06638648 -0.021354279 -0.032163285 -0.05526223 -0.04483106 0.0059260908 0.021644948 -0.0064228773
-0.016256182 -0.06774989 -0.06794096 -0.060118325 -0.04480005 0.078558885 -0.012507315 0.010881076
-0.062121287 -0.048177652 0.010027479 0.025331093 -0.078936495 0.043896873 -0.008653534 0.0010981607
-0.027061688 0.060707364 -0.032709476 0.071569055 0.04125008 0.023737233 0.027900033 0.03693035
-0.006709269 -0.042559307 0.07965614 -0.0026188435 -0.058891755 0.030954264 0.018900014 0.063395955
-0.066638425 -0.048218712 0.07161805 0.061645754 0.020159004 -0.0018664888 -0.009394965 0.00022614647
-0.002496436 -0.032902796 0.056801777 -0.008400075 -0.07411356 0.03812017 -0.03435003 0.05544786
-0.053753696 -0.012053487 0.06098205 0.052753672 -0.010919887 -0.038642436 0.019840764 -0.044009957
00000000: dc2a 063d 8f7e 3fbc 54b8 8cbd a361 acbc
00000010: 0df5 9d3d be06 8b3c 7386 d93c 4cd8 38bd
00000020: c79f 6f3d 0b8b 1f3d dc0e 0b3d ea6b 453d
00000030: feb9 04bd 27a6 d3bc b369 733c 39d5 aa3c
00000040: 120d a3bd 151e c53c 5dec ffbc 17e6 72bb
00000050: af1a 063d f6e4 14bc 7872 cd3c e153 15bd
00000060: e510 773a 0275 99bc 9684 f93b 7142 44bc
00000070: 6f60 8e3d ca0d 0d3d 9da2 793d 8f68 06bb
00000080: 966e 873c 38d2 7fbd abc5 a1bc cc2d 7a3d
00000090: 745a 823d 710d 183b a999 283d 3989 35bd
000000a0: 982c 5ebc f2af 65bd 0ecf 99bd a028 293d
000000b0: ff78 943d a4c5 e23c 097b 8cbc 0961 3c3d
000000c0: b79a f1bc da3c 383c 20f5 9a3d b49d 7a3d
000000d0: 0631 87bd bdc8 213b 4219 963d 44ae 563d
000000e0: a1d1 0abd 95aa 5c3d 1276 93bd 8a8b 683c
000000f0: b4dc 1d3d fcc4 873d d623 4d3d c90a aa3b
00000100: 5bf1 983c f11f 0c3d 092b d8bc 2a81 84bc
00000110: 4074 273d a5a5 b23b 37b1 93bd 388e a93c
00000120: bab9 89bd 0597 2d3c 7757 3bbc 54f3 a23d
00000130: c862 02bd 1747 25bb 2954 84bc d7c2 4bbd
00000140: 14c5 cdbc b8ef 1dbd 8110 46bd 6400 21bd
00000150: 598d 2abd 094f 2f3d 9106 9e3d 91cb 063d
00000160: b67d 1dbd 720c 7cbd f8a9 603d 2ebb 4bbb
00000170: b3d0 573d ef72 163d 9199 58bc 7d2f 333d
00000180: e59d 89bd ff5d 82bd ad2b 06bc 5088 a73c
00000190: a9b2 98bd a8da 073c 95c4 33bd fcc6 5cbd
000001a0: bea8 bb3d 94c4 f53c d217 8cbd d1d1 5e3c
000001b0: 524a e43b 702c 65bb f909 803d 436d 2dbc
000001c0: 5d0d 80bd 0cc9 cdbb 5045 4b3d 4310 a83d
000001d0: 6e78 143d a9de b2bc a7b3 7c3d 005d 9b3d
000001e0: d1e6 13bd f872 273d 5f14 a33d ca88 5b3d
000001f0: b49e 6c3d 6773 afbd dc24 843d 722b 79bd
00000200: 79e5 05bd a9c6 98bd 7c89 233d 8884 00bd
00000210: 1b52 a63b 7041 53bd 27a9 853d 1f44 893d
00000220: a3f5 87bd 2bef aebc a6bd 03bd a65a 62bd
00000230: c6a0 37bd a72f c23b bf50 b13c 0077 d2bb
00000240: af2b 85bc 74c0 8abd a124 8bbd a23e 76bd
00000250: 4280 37bd 7be3 a03d 7beb 4cbc 8a46 323c
00000260: e472 7ebd ee55 45bd 4c4a 243c 2783 cf3c
00000270: 75a9 a1bd 35cd 333d 8dc7 0dbc 29f0 8f3a
00000280: 79b0 ddbc 49a8 783d 5ffa 05bd cc92 923d
00000290: d8f5 283d 9674 c23c 9c8e e43c 4744 173d
000002a0: 6dd9 dbbb ab52 2ebd c222 a33d e7a0 2bbb
000002b0: 7b38 71bd cc93 fd3c 34d4 9a3c bdd5 813d
000002c0: ba79 88bd fc80 45bd 7cac 923d 4280 7c3d
000002d0: 7f24 a53c f9a4 f4ba 57ed 19bc bb21 6d39
000002e0: 3f9b 23bb 15c5 06bd fba8 683d 78a0 09bc
000002f0: dac8 97bd e523 1c3d 9eb2 0cbd 4c1d 633d
00000300: d62c 5cbd fd7b 45bc 50c8 793d 3c14 583d
00000310: 53e9 32bc 8847 1ebd 1989 a23c c943 34bd
