PINN/Flow_in_Cavity.pt (torch, 519979 bytes, 13 tensors)

il.weight f4 [20, 3]
0	0x3e8c0f60	0.2735548
1	0x3e983e2c	0.29734933
2	0x3e979ae3	0.29610357
3	0xbddf45c7	-0.10901981
4	0xbea28bab	-0.31747183
5	0xbf02c2a2	-0.51078236
6	0xbd0751a6	-0.03303685
7	0x3ee36c2e	0.44418472
8	0xbeac69e5	-0.3367454
9	0xbe6150be	-0.22003457
10	0x3ecaffb4	0.3964821
11	0xbe08fbd7	-0.1337732
12	0x3e661340	0.22468281
13	0x3ecb9849	0.39764622
14	0xbf01f878	-0.5076976
15	0x3f07a396	0.5298399
16	0x3f17b171	0.5925513
17	0xbd764d0a	-0.060132064
18	0x3ee69f64	0.4504348
19	0x3ebfa84a	0.37433082
20	0x3dfcd36d	0.12345014
21	0x3f0d3662	0.55161107
22	0x3d3f197a	0.046655156
23	0xbe657057	-0.22406135
24	0xbf13dce7	-0.57758945
25	0x3e63b77c	0.22237962
26	0x3d98be5c	0.07458183
27	0x3f08d627	0.5345177
28	0xbeb6107b	-0.3555945
29	0x3db605b0	0.088878036
30	0xbda61f63	-0.08111455
31	0xbefc5faf	-0.4929175
32	0x3e0ce4cf	0.13759159
33	0xbf06074c	-0.52354884
34	0xbeb240c1	-0.34815028
35	0x3edf2488	0.4358256
36	0x3eb49cb7	0.35275814
37	0x3cfb96fb	0.030711642
38	0xbefa4c15	-0.4888617
39	0xbe4be1dd	-0.19910379
40	0x3d9def72	0.07711686
41	0x3e1e9d6b	0.15489738
42	0xbf201292	-0.62528336
43	0xbe2c472f	-0.1682403
44	0xbd421abd	-0.04738878
45	0xbedd1d2a	-0.43186313
46	0xbe141de2	-0.14464524
47	0x3ed940b9	0.42432192
48	0x3e335533	0.1751297
49	0x3f0fa9e1	0.5611859
50	0xbeaab10d	-0.33338204
51	0x3eaec14e	0.34131855
52	0xbe8de3cb	-0.27712855
53	0x3f1a79cc	0.603421
54	0xbe283503	-0.16426472
55	0x3e8dde31	0.2770858
56	0x3dbcb985	0.092150725
57	0x3e132b48	0.14371979
58	0x3d8ee9ee	0.06978212
59	0x3eaedaa5	0.34151188

il.bias f4 [20]
0	0xbebec19f	-0.37257096
1	0x3d654b6f	0.055980142
2	0x3e62b2a6	0.22138461
3	0x3f122bba	0.5709797
4	0x3f20da68	0.6283326
5	0x3e34011c	0.17578548
6	0xbefc1d69	-0.49241188
7	0xbeb92fa3	-0.36169156
8	0x3eb0e674	0.34550822
9	0x3ec58eb4	0.38585436
10	0xbe3f9743	-0.18710046
11	0x3e127c26	0.14305171
12	0xbb509071	-0.0031824375
13	0xbd225b60	-0.039637923
14	0xbe62c79e	-0.2214646
15	0xbf0d0589	-0.5508657
16	0xbd9beb95	-0.07613293
17	0xbf075a0a	-0.52871764
18	0xbee272d7	-0.4422824
19	0xbd6a5e22	-0.05721868

hl1.weight f4 [200, 20]
0	0xbe5cc7a7	-0.21560536
1	0xbb505ef8	-0.0031794887
2	0x3e107b08	0.14109433
3	0xbe3950c0	-0.1809721
4	0x3d9006ce	0.07032548
5	0xbdd89184	-0.1057463
6	0xbd9fbd6d	-0.07799802
7	0xbc31d189	-0.01085318
8	0xbdc7cb13	-0.0975553
9	0xbb2afed2	-0.0026091826
10	0xbe601433	-0.21882705
11	0xbc7100ef	-0.014709695
12	0xbdcc2854	-0.099686295
13	0x3b22da90	0.0024849512
14	0xbe2a9425	-0.16658075
15	0x3ce3e14b	0.027817389
16	0xbcb780e1	-0.022400321
17	0x3dcf1740	0.101118565
18	0x3e766441	0.24061681
19	0xbc659998	-0.01401367
20	0x3cbe22a6	0.023209881
21	0x3e0e5b64	0.1390205
22	0xbe5efcc8	-0.21776116
23	0x3e2a322f	0.16620706
24	0xbcef125f	-0.029183565
25	0xbe5b2c42	-0.21403602
26	0xbdd7fd6c	-0.10546383
27	0xbdb57cea	-0.08861716
28	0xbe0d99da	-0.13828221
29	0x3e5bf68d	0.2148077
30	0x3e0b6099	0.13611068
31	0xbdee9651	-0.11649764
32	0xbdb11416	-0.08646409
33	0x3d391bbb	0.04519246
34	0xbd36cfdb	-0.04463182
35	0xbe527ddf	-0.20555829
36	0xbe16221b	-0.14661448
37	0xbe1a09a7	-0.15042745
38	0xbdfd5172	-0.1236905
39	0x3de72124	0.11285618
40	0x3d81bb45	0.06334547
41	0xbe3f3db9	-0.18675889
42	0x3d6abdc9	0.0573099
43	0x3d89234f	0.06696188
44	0xbda768b8	-0.081742704
45	0x3c4d3946	0.012525862
46	0xbce418af	-0.027843801
47	0xbdf382af	-0.1189016
48	0xbd08d2e1	-0.033404235
49	0x3df548bd	0.11976764
50	0xbd4e9020	-0.050430417
51	0xbdbeba48	-0.09312874
52	0xbe0fb899	-0.14035262
53	0x3e242fc8	0.16033852
54	0xbcab68be	-0.020923968
55	0x3dba5770	0.09098709
56	0x3ccf6a32	0.025319193
57	0xbe196d96	-0.1498321
58	0xbd724637	-0.059148993
59	0x3e0ed2a6	0.13947544
60	0xbdf0de53	-0.11761155
61	0x3d363893	0.044487547
62	0xbe251b76	-0.16123757
63	0xbd1c44dc	-0.038151607
64	0x3e0edc97	0.13951336
65	0x3d095ccb	0.03353576
66	0x3de9241f	0.11383843
67	0x3e18b646	0.14913282
68	0xbe5574bf	-0.20845316
69	0x3de98ac4	0.114034206
70	0xbe80c75f	-0.25152108
71	0xbd552091	-0.05203301
72	0xbe31b323	-0.17353491
73	0x3ddec69e	0.10877727
74	0xbe0971bb	-0.13422291
75	0x3e272d6e	0.16325924
76	0xb90b157a	-0.00013264074
77	0x3d9283e1	0.0715406
78	0x3d8084b9	0.06275315
79	0xbdb8ae9b	-0.09017678
80	0xbdec19d5	-0.115283646
81	0x3dd3f030	0.103485465
82	0xbdd7583b	-0.105148755
83	0xbe6b1781	-0.22958185
84	0xbe08adc8	-0.13347542
85	0x3e73e947	0.23819457
86	0xbdb88903	-0.09010508
87	0x3d33b909	0.043877635
88	0xbd2a7ddf	-0.041623946
89	0x3d35e016	0.044403158
90	0xbd43c10d	-0.04779153
91	0xbd2c5190	-0.04206997
92	0x3ded300c	0.1158143
93	0x3d11776f	0.03551429
94	0x3e50d122	0.20392278
95	0xbbada099	-0.0052986857
96	0x3d96e070	0.07367027
97	0xbddc533a	-0.10758062
98	0x3da397fc	0.07987973
99	0xbe527557	-0.20552574
100	0xbde9e4af	-0.11420571
101	0x3be86677	0.007092293
102	0xbce0bf3b	-0.027434936
103	0xbd9ed242	-0.07754947
104	0x3df203be	0.1181712
105	0x3e0a64be	0.13514993
106	0x3c9cc342	0.019136075
107	0x3cda8064	0.02667255
108	0x3df31b86	0.11870484
109	0x3d1d361e	0.03838169
110	0x3e1fcdcb	0.15605848
111	0xbe00c75c	-0.1257605
112	0x3d1f2461	0.038853053
113	0xbd63500d	-0.055496264
114	0x3e032a20	0.12809038
115	0xbdf322cf	-0.118718736
116	0xbd39b0e8	-0.045334727
117	0x3e38de62	0.18053582
118	0x3ceeed37	0.029165847
119	0xbe634af7	-0.22196566
120	0xbd4d0c71	-0.050060693
121	0xbe50c6df	-0.20388363
122	0xbe0fe93d	-0.14053817
123	0x3e6c136c	0.23054284
124	0xbe17ebfd	-0.14836116
125	0xbd2e7d8a	-0.042600192
126	0x3d3d8689	0.04627088
127	0x3dccb465	0.09995345
128	0x3d9c5628	0.076336205
129	0xbe315a4d	-0.17319603
130	0xbe5abcb3	-0.21361046
131	0xbe15fd56	-0.14647421
132	0x3daedb12	0.08537878
133	0x3e1f8d3c	0.1558122
134	0xbdec2ae1	-0.11531616
135	0xbe428d4c	-0.18999213
136	0xbe2451cb	-0.16046827
137	0xbe3f0d0a	-0.18657318
138	0xbb8840d8	-0.0041581206
139	0xbe3b1b8f	-0.18272232
140	0xbe40f5e1	-0.18843795
141	0xbde73c6c	-0.112908214
142	0x3d7e8039	0.062134
143	0xbbd6e469	-0.0065579903
144	0xbde26fa8	-0.11056453
145	0x3d9eb784	0.077498466
146	0xbe5a1e73	-0.21300678
147	0x3d48e538	0.049046725
148	0xbe406e0f	-0.18791984
149	0x3d42040d	0.047367144
150	0xbda30855	-0.079605736
151	0x3aa590b1	0.0012631622
152	0xbdcf4950	-0.10121405
153	0x3e43c103	0.19116597
154	0x3d27d0a3	0.040970456
155	0xbe4ec5ad	-0.20192595
156	0x3dc22fcf	0.09481775
157	0x3e2f8976	0.17142281
158	0xbd2331c0	-0.039842367
159	0xbe03af82	-0.1285992
160	0x3cc47916	0.02398352
161	0xbe0893b5	-0.13337596
162	0xbdb6aae2	-0.08919312
163	0xbe5c7e0e	-0.21532461
164	0x3e29dbe2	0.16587785
165	0x3b70985a	0.0036711902
166	0xbdb86212	-0.090030804
167	0xbd5da613	-0.05411346
168	0xbdfa0bf3	-0.122093104
169	0xbe5e5194	-0.21710807
170	0xbd84f007	-0.06491094
171	0x3dd4c39b	0.10388871
172	0x3e0a684c	0.13516349
173	0xbdcbb47b	-0.09946533
174	0xbe314cb7	-0.1731442
175	0x3df2f9b1	0.11864031
176	0x3d02b19a	0.031907655
177	0xbe597443	-0.21235757
178	0x3e7dfc4d	0.24803276
179	0xbe1c6248	-0.15271866
180	0x3dbb1f4e	0.0913683
181	0xbe4cb059	-0.19989146
182	0x3e038728	0.12844527
183	0xbdf8fc99	-0.12157554
184	0x3cfa90e3	0.030586665
185	0x3e37a26d	0.17933054
186	0xbd9af73c	-0.075666875
187	0x3e586e50	0.21135831
188	0xbe2ce5c6	-0.16884527
189	0xbe1afb49	-0.1513492
190	0xbdb3561c	-0.087566584
191	0xbd78f34d	-0.060778905
192	0xbe11b39a	-0.14228669
193	0x3dda759f	0.10666966
194	0x3e1926a2	0.14956143
195	0x3e4cd2d3	0.20002298
196	0x3e492ff6	0.19647202
197	0x3dcf4d09	0.10122115
198	0xbd053109	-0.032517467
199	0xbc17c6ca	-0.009263704
200	0xbe671349	-0.2256595
201	0x3e497050	0.1967175
202	0xbe5e0c80	-0.21684456
203	0xbdbac9fd	-0.091205575
204	0xbdd0988b	-0.10185345
205	0x3e5ba289	0.21448721
206	0xbcfb4f94	-0.030677594
207	0x3dfe713c	0.124239415
208	0x3dbae65c	0.09125969
209	0x3e3831f5	0.17987807
210	0xbe79aac7	-0.24381553
211	0x3e1197e0	0.14218092
212	0x3e195010	0.14971948
213	0x3dfad40c	0.12247476
214	0x3e32dc4e	0.17466852
215	0x3dd675c6	0.10471682
216	0x3e628e3a	0.22124568
217	0x3da92d0c	0.08260545
218	0x3df3e972	0.119097605
219	0xbcb7c77e	-0.022433992
220	0xbc8c21bc	-0.01710593
221	0x3b9d51fc	0.004801033
222	0xbe156d13	-0.1459239
223	0xbe0dc03c	-0.13842863
224	0xbe1ad366	-0.15119705
225	0x3d487ceb	0.048947256
226	0xbda95db2	-0.08269824
227	0x3d6619b5	0.05617686
228	0xbe30b203	-0.17255406
229	0x3d859d9a	0.06524201
230	0xbd3d01f0	-0.046144426
231	0xbdeb3eb0	-0.11486566
232	0x3e05bec1	0.13061048
233	0x3e288005	0.16455086
234	0xbe4ef50a	-0.20210662
235	0xbe082f9d	-0.13299413
236	0xba59e473	-0.00083119347
237	0xbba22dd6	-0.0049493117
238	0xbcefb47a	-0.029260863
239	0x3d914fd5	0.07095305
240	0xbd764b4c	-0.060130402
241	0xbe636e88	-0.22210133
242	0x3e2e5356	0.17023978
243	0x3dfda7a6	0.12385492
244	0xbca29ea2	-0.019851033
245	0x3d918e4e	0.071072206
246	0x3d7e00a8	0.062012345
247	0x3e0c2adf	0.13688229
248	0xbe6da775	-0.23208411
249	0x3e41dde5	0.18932302
250	0xbd5cb276	-0.05388113
251	0xbe61d0c2	-0.22052291
252	0xbe5b57c4	-0.21420199
253	0xbe55652f	-0.2083938
254	0xbdc1114f	-0.094271295
255	0x3e6a0a8e	0.22855589

hl1.bias f4 [200]
0	0x3e48e8e5	0.19620092
1	0x3dced615	0.10099427
2	0xbd897393	-0.06711497
3	0xbdc99831	-0.09843481
4	0xbcd71b56	-0.026258152
5	0x3e638982	0.22220424
6	0xbe37a524	-0.1793409
7	0x3e36dda6	0.1785799
8	0x3e5a981d	0.21347089
9	0xbdc15358	-0.09439725
10	0x3dd6a17f	0.10480022
11	0xbe5d6981	-0.21622278
12	0x3d9940ab	0.074830376
13	0x3c935987	0.017987026
14	0xbd9a8a5c	-0.07545921
15	0xbe10495c	-0.14090484
16	0xbe614cc2	-0.22001937
17	0xbd4cae7d	-0.049971092
18	0x3dc7fb89	0.097647734
19	0xb9cbcbb9	-0.00038870962
20	0xbdfd0803	-0.12355044
21	0xbe03853a	-0.1284379
22	0x3c878a9b	0.016545584
23	0xbe393491	-0.18086459
24	0x3e21af84	0.1578961
25	0x3cd7ddc5	0.026350865
26	0xbdf75000	-0.12075806
27	0x3d83de75	0.06438915
28	0x3dadaa73	0.08479776
29	0x3e23c145	0.15991695
30	0xbaf44687	-0.0018636741
31	0x3d1c1813	0.038108896
32	0xbe0cef49	-0.13763155
33	0xbdcd8dfe	-0.100368485
34	0x3e255ecc	0.16149443
35	0x3db38fc0	0.087676525
36	0xbdf3a1a9	-0.118960686
37	0x3d908469	0.07056505
38	0x3e34cba2	0.17655805
39	0x3dba4e71	0.09096993
40	0xbe022a5a	-0.12711468
41	0xbd0ad74c	-0.03389673
42	0x3e22cc4c	0.15898246
43	0xbe48bc9e	-0.19603202
44	0xbd9a81be	-0.075442776
45	0x3dd03302	0.10165979
46	0xbe1fe731	-0.15615536
47	0x3d9a5bc5	0.07537035
48	0xbd5b47c0	-0.053535223
49	0x3e55adcd	0.20867081
50	0xbdf21b9d	-0.11821673
51	0x3e47d2ba	0.1951398
52	0xbd91eba8	-0.07125026
53	0x3ccb39fe	0.024807926
54	0xb90697d1	-0.00012835792
55	0x3e2499ff	0.1607437
56	0x3e1325f4	0.14369947
57	0xbe4dad73	-0.20085697
58	0xbe09d8bd	-0.13461585
59	0x3e03676c	0.12832421
60	0xbdef96c1	-0.11698676
61	0xbd5f5095	-0.05452021
62	0x3e0c75ec	0.13716859
63	0x3d96b0ec	0.07357964
64	0xbce5193b	-0.027966132
65	0xbcbda265	-0.023148725
66	0xbd94d001	-0.07266236
67	0xbe085490	-0.13313508
68	0x3e50bbe0	0.20384169
69	0x3e393c0a	0.1808931
70	0x3e16e0d6	0.14734206
71	0xbc2fe0cb	-0.010734747
72	0x3e20ca91	0.15702273
73	0xbe48b188	-0.19598973
74	0x3d1b2209	0.037874255
75	0x3e166e0f	0.14690422
76	0xbe23edd5	-0.16008694
77	0x3d3ffe2c	0.046873257
78	0x3dd35c71	0.10320366
79	0xbe464ba6	-0.19364795
80	0xbe376ca6	-0.1791254
81	0xbcb11e83	-0.021620994
82	0x3e3e68ff	0.1859474
83	0x3e0b3a1d	0.13596387
84	0x3dddcd27	0.10830145
85	0xbe2e1d29	-0.17003311
86	0x3b6f0ad7	0.0036474967
87	0x3e1442f3	0.14478664
88	0xbcabd47f	-0.02097535
89	0x3cef2116	0.029190581
90	0xbe30243a	-0.1720132
91	0xbda63d78	-0.08117193
92	0x3e51cb95	0.20487817
93	0xbe202d0f	-0.15642188
94	0xbe18bebc	-0.1491651
95	0x3d998e86	0.07497887
96	0xbc7b2bfc	-0.015330311
97	0xbb9a465a	-0.0047080936
98	0x3da6f555	0.08152262
99	0xbdbdb3de	-0.092628226
100	0x3e3e964a	0.18612018
101	0x3d57cdca	0.05268649
102	0xbd9a4024	-0.07531765
103	0x3d728b4f	0.059214886
104	0x3de7bb99	0.11315078
105	0xbd4166c2	-0.047217138
106	0xbc6f0ff2	-0.014591204
107	0xbdda1e1a	-0.10650273
108	0xbd80dba9	-0.06291897
109	0xbe0602a6	-0.13086948
110	0xbd21d0f7	-0.039505925
111	0x3e3d2141	0.18469717
112	0x3ddb0b05	0.10695461
113	0x3974fb43	0.00023363256
114	0xbe005a3c	-0.12534422
115	0x3be28af5	0.0069135376
116	0xbd0cd7f4	-0.034385636
117	0xbe3487f3	-0.17629986
118	0x3d54f3f1	0.051990453
119	0x3e342156	0.17590842
120	0x3da391bf	0.07986783
121	0xbe604066	-0.21899566
122	0xbdf0a6b3	-0.11750545
123	0x3ca25af0	0.019818753
124	0x3e48347d	0.19551273
125	0xbe2927a2	-0.16519025
126	0x3dc19688	0.0945254
127	0x3e321228	0.17389739
128	0xbe5c3a28	-0.2150656
129	0x3e3c3f93	0.18383627
130	0x3e464cd5	0.19365247
131	0xbe198ee3	-0.14995913
132	0xbe1af32a	-0.15131822
133	0x3d9e4fae	0.077300414
134	0x3e38126d	0.17975779
135	0x3c3087db	0.010774578
136	0x3d91ccbd	0.07119129
137	0x3c8c1227	0.0170985
138	0x3e0eda63	0.13950495
139	0xbe3faf94	-0.18719321
140	0x3e0b3aba	0.13596621
141	0x3d5acd6a	0.053418554
142	0xbdbb4fee	-0.09146105
143	0x3d9b9ab7	0.07597869
144	0xbe13d2d3	-0.14435892
145	0xbe2f41a7	-0.17114888
146	0x3cfbd662	0.030741874
147	0xbe003031	-0.12518384
148	0x3e43d4f7	0.19124208
149	0x3cad9cef	0.021192996
150	0xbe6035ae	-0.21895477
151	0x3de9b4ea	0.1141146
152	0xbdbdf24f	-0.09274732
153	0xbe524366	-0.20533523
154	0x3dd30fb3	0.10305729
155	0xbe5675ab	-0.20943324
156	0x3da0fe01	0.078609474
157	0x3da2f4e7	0.07956868
158	0x3de6b44a	0.11264856
159	0x3e517a66	0.20456848
160	0x3e2f0bec	0.17094392
161	0xbcf97115	-0.03044943
162	0xbe4e9a2f	-0.20176004
163	0xbe014e68	-0.12627566
164	0x3dea7261	0.11447597
165	0xbe655f0b	-0.22399537
166	0x3e44c3b0	0.19215274
167	0xbe19bde0	-0.15013838
168	0x3c5337d1	0.012891726
169	0xbc6f71ef	-0.014614566
170	0x3e3df25b	0.18549483
171	0xbdceb9ff	-0.1009407
172	0x3e3e7ca5	0.18602236
173	0xbdc688ff	-0.09694099
174	0x3dc1d80f	0.09465038
175	0x3d9fd98f	0.07805168
176	0xbdcca003	-0.09991457
177	0x3e48f5bb	0.19624989
178	0xbe308138	-0.17236793
179	0x3de8abfb	0.11360928
180	0x3cf92b22	0.030416075
181	0x3b937813	0.004500398
182	0x3e24b20f	0.16083549
183	0x3e0c0407	0.13673411
184	0x3ce67e57	0.028136415
185	0x3ddf27d7	0.10896271
186	0x3dd2c701	0.10291863
187	0xbdddcf8a	-0.108306006
188	0xbdbb13cd	-0.09134636
189	0xbd4a72bd	-0.04942583
190	0xbe054499	-0.13014449
191	0xbc37c6cf	-0.011216833
192	0x3dab5255	0.08365313
193	0x3e7f6081	0.24939157
194	0xbe1e9e8b	-0.15490167
195	0xbd8bdfb6	-0.06829779
196	0x3be13880	0.0068731904
197	0x3d8f2f9b	0.06991502
198	0x3df9a60b	0.12189873
199	0x3e1dbbd8	0.15403688

hl2.weight f4 [200, 200]
0	0xbd70dfd4	-0.05880721
1	0x3c313741	0.010816396
2	0x3d0b39b5	0.03399058
3	0x3d5575f9	0.05211446
4	0xbd72801b	-0.059204202
5	0x3d847d78	0.06469244
6	0x3a3f51c5	0.00072982564
7	0x3cf87016	0.030326884
8	0xbc32280a	-0.010873804
9	0xbcf856bb	-0.030314794
10	0xbc673e9b	-0.014114047
11	0xbd3ec817	-0.04657754
12	0xbc1bd838	-0.009512
13	0x3d0673b1	0.032825176
14	0x3d4cb2ff	0.04997539
15	0x3d1c03dd	0.03808962
16	0xbd3de7e1	-0.046363715
17	0xbd3e613d	-0.046479452
18	0x3d9544e3	0.0728853
19	0xbb993adb	-0.0046762056
20	0xbc85dfae	-0.01634201
21	0xbcd94f60	-0.026527107
22	0xbd392d5b	-0.04520927
23	0x3c9ac036	0.018890481
24	0xbd079a6c	-0.033106253
25	0x3cc8dd83	0.024519688
26	0xbd84209b	-0.064515315
27	0x3c84ce37	0.016211612
28	0xbc8f45a2	-0.017489258
29	0x3c243d16	0.01002433
30	0x3ca81d79	0.020521866
31	0xbcbe4d7e	-0.02323031
32	0xbce6c4e4	-0.028170057
33	0x3d8906bb	0.06690737
34	0xbc4b8be5	-0.01242349
35	0x3d109250	0.035295784
36	0xbd9efdbf	-0.07763242
37	0xbdae8d63	-0.08523061
38	0x3d53ae73	0.05168004
39	0xbc805f05	-0.015670309
40	0xbc33066b	-0.010926823
41	0x3d796a2e	0.060892276
42	0xbd518d7f	-0.05116033
43	0xbcf73a1a	-0.030179072
44	0x3cd392c8	0.025826827
45	0xbd10ae84	-0.03532268
46	0x3c262cb7	0.010142497
47	0x3c954f9e	0.018226441
48	0xbacb5c14	-0.0015515112
49	0x3c68e0e4	0.014213774
50	0xbd24ab9f	-0.040202733
51	0xbd95ec45	-0.073204555
52	0x3d5358a9	0.051598225
53	0x3c655ed8	0.013999663
54	0xbcf5152a	-0.029917318
55	0x3c097493	0.00838961
56	0x3d3f6e77	0.046736207
57	0xbd715ef6	-0.058928452
58	0xba42b960	-0.0007428136
59	0x3d0a1554	0.033711746
60	0x3d2e3207	0.04252818
61	0x3d6f495d	0.058419574
62	0xbd19902b	-0.037491005
63	0xbc4bc3b5	-0.012436797
64	0x3cd51077	0.026008828
65	0x3c874b91	0.016515525
66	0x3d9a3055	0.0752875
67	0x3b62db85	0.0034615707
68	0xbd79bc9e	-0.060970895
69	0x3c474a79	0.012163752
70	0xbcc5a117	-0.024124665
71	0xbd3e3829	-0.046440277
72	0x3aadd373	0.0013261869
73	0x3ca4fb53	0.020139372
74	0xbd75619d	-0.059907544
75	0x3d85f997	0.06541746
76	0x3cd91652	0.026499901
77	0x3c5f8276	0.013641944
78	0xbd65d23d	-0.056108702
79	0x3d8a4e06	0.06753163
80	0x3c94c9a2	0.018162552
81	0x3d7bd18d	0.06147914
82	0x3cfdeca0	0.03099662
83	0x3cb45f0b	0.022017976
84	0xbca61c3d	-0.020277137
85	0xbd0edf9c	-0.03488122
86	0xbcb2f878	-0.021846995
87	0x3d6e272d	0.05814283
88	0xbd89c8e8	-0.06727773
89	0x3cea423b	0.028596034
90	0xbc525cf3	-0.012839544
91	0xbd818c40	-0.06325579
92	0x3c80aa17	0.015706105
93	0xbd882f7c	-0.06649682
94	0x3b8bbe86	0.0042646555
95	0xbc0c1090	-0.008548871
96	0x3c02a436	0.007973721
97	0xbcd54495	-0.026033679
98	0x3d7239a0	0.059136987
99	0xbd2be3f3	-0.041965436
100	0x3d3b4f95	0.045730192
101	0xbbea4199	-0.007148933
102	0xbd7ed6b6	-0.062216483
103	0xbd8e0d15	-0.06936089
104	0x3d78241f	0.060581323
105	0xbd227254	-0.039659813
106	0xbcc3141e	-0.023813304
107	0xbcb48127	-0.02203424
108	0xbc96e460	-0.018419445
109	0xbae7d70e	-0.0017687993
110	0x3b590a9d	0.0033117898
111	0xbccb3737	-0.024806602
112	0xbd983dce	-0.07433663
113	0x3c8dd101	0.017311575
114	0x3c1e1f62	0.009651037
115	0x3c7e9124	0.015537534
116	0x3cb55511	0.02213529
117	0x3cadfaa6	0.021237683
118	0x3ceedfaa	0.029159386
119	0xbceb35db	-0.028712204
120	0xbd015cdd	-0.031582702
121	0x3d9a0eba	0.0752234
122	0xbb98ddce	-0.004665113
123	0x3ca6d8a1	0.020366969
124	0xbd79cd97	-0.06098708
125	0x3d5abc04	0.053401962
126	0xbd424448	-0.0474284
127	0x3d592804	0.053016677
128	0x3bba80bf	0.0056916173
129	0xbcf449cd	-0.029820347
130	0x3936c5d9	0.00017430577
131	0x3d6b7daa	0.05749289
132	0x3cb8ba59	0.022549795
133	0x3d9e8de6	0.07741909
134	0x3bc01871	0.0058622886
135	0xbd0cb55c	-0.034352645
136	0xbd62ccab	-0.055370968
137	0x3caeb85c	0.021328144
138	0x3d1bfa3d	0.038080443
139	0xbd423b8f	-0.04742008
140	0x39ef36c4	0.00045626436
141	0xbd5ca01c	-0.05386363
142	0xbb5a734e	-0.0033332887
143	0xbd22aa29	-0.03971306
144	0xbcd38caa	-0.02582391
145	0xbcb2d4db	-0.021830013
146	0x3d162254	0.03665383
147	0xbd646504	-0.0557604
148	0xbd4a4415	-0.049381334
149	0x3c6ed2f6	0.014576664
150	0x3d58cbe5	0.052928824
151	0xbd00316a	-0.031297125
152	0x3cc0d04c	0.023536824
153	0x3cec086e	0.028812613
154	0xbce01169	-0.027352052
155	0xbd7604e4	-0.060063258
156	0x3d2a4813	0.04157264
157	0xbd462df4	-0.048383668
158	0xbd39f158	-0.04539618
159	0xbcefa2f0	-0.0292525
160	0x3ce92f8e	0.028465059
161	0xbcf3a853	-0.02974335
162	0xbd0c882c	-0.03430955
163	0xbc4c4c8b	-0.012469421
164	0xbd6b3fe5	-0.05743398
165	0x3c7e0399	0.015503787
166	0x3ca95484	0.020670183
167	0xbd2f0d2c	-0.04273717
168	0x3d0e68aa	0.034767784
169	0x3d44d9fd	0.048059452
170	0xbcd9641e	-0.026536997
171	0x3d54dae9	0.05196658
172	0xbda6338e	-0.08115302
173	0xbd267330	-0.040637195
174	0xbd7f81a1	-0.062379483
175	0x3d3e5796	0.046470247
176	0x3d2d7341	0.042346243
177	0xbc539624	-0.012914214
178	0x3cc87168	0.024468139
179	0xbd95f1f4	-0.073215395
180	0x3cd5392f	0.026028244
181	0xbd1468e8	-0.03623286
182	0x3d7ea99c	0.06217347
183	0xbc028612	-0.007966535
184	0x3b788dbf	0.0037926284
185	0x3d083668	0.03325501
186	0x3d850a66	0.06496124
187	0x3cfabf02	0.030608658
188	0x36f6fe83	7.3610004e-06
189	0x3d6ebdc4	0.058286443
190	0xbd7864ea	-0.060643114
191	0xbc1c5492	-0.0095416475
192	0x3cdde6fe	0.027087685
193	0xbcd9a439	-0.026567565
194	0xbc320cc4	-0.010867301
195	0xbbde3a95	-0.006781886
196	0x3cbd6c14	0.023122825
197	0xbd52b11e	-0.051438443
198	0xbd396935	-0.04526635
199	0x3d3ace99	0.045607183
200	0x3cbe251d	0.023211056
201	0x3db2c4b6	0.08728926
202	0xbce43771	-0.027858468
203	0x3d67753b	0.056508284
204	0x3b870b3f	0.0041212137
205	0xbdb84afb	-0.089986764
206	0xbd1354f2	-0.035969682
207	0x3d95cc6a	0.073143795
208	0x3d62e773	0.05539651
209	0x3d72f38f	0.059314307
210	0x3d04afe0	0.03239429
211	0xbd14790b	-0.036248248
212	0x3d488757	0.048957195
213	0xbc9aaf08	-0.01888229
214	0x3d519aa4	0.051172867
215	0xbd11e375	-0.03561731
216	0x3c17eeb8	0.009273224
217	0xbcc1d47d	-0.023660893
218	0x3b95169c	0.0045498144
219	0xbd30ca78	-0.04316184
220	0x3d0ec69f	0.03485739
221	0x3aed9428	0.0018125819
222	0x3d5f3624	0.054494992
223	0xbd0b7b46	-0.03405311
224	0xbd1bc6d9	-0.038031433
225	0xbd3caf2b	-0.04606549
226	0x3cf35bf7	0.029706938
227	0xbd05615b	-0.03256355
228	0xbbefcc91	-0.0073180874
229	0x3b425fac	0.0029659076
230	0xbc593dc7	-0.013259358
231	0xbd8d9d1f	-0.06914734
232	0xbce78343	-0.028260833
233	0xbd3d273c	-0.046179995
234	0x3d5d45af	0.054021534
235	0xbd5d1d20	-0.053982854
236	0xbaddf2f6	-0.001693337
237	0xbbd77ffd	-0.0065765367
238	0x3cbb931b	0.022897294
239	0x3d310135	0.04321404
240	0xbc91574c	-0.017741822
241	0x3d803589	0.06260211
242	0xbd6feaa3	-0.058573376
243	0x3cee5361	0.029092493
244	0xbcc52c89	-0.024069088
245	0xbd07c860	-0.033150077
246	0xbd11bdd1	-0.035581414
247	0xbd408f4c	-0.04701166
248	0xbd79f393	-0.061023306
249	0xbd9bc719	-0.07606334
250	0xbd15da91	-0.036585394
251	0x3da2f718	0.07957286
252	0x39df8742	0.0004263465
253	0x3d86ef57	0.06588619
254	0xbb572cbb	-0.0032833058
255	0xbc9591de	-0.018258031

hl2.bias f4 [200]
0	0x3d703069	0.058639918
1	0xbcb9c2f2	-0.022675965
2	0x3d802a2f	0.06258046
3	0x3c758092	0.014984267
4	0x3d12a410	0.035800993
5	0xbd751a99	-0.05983982
6	0x3d2ecee1	0.042677764
7	0x3bcf0ae4	0.006318437
8	0x3d178518	0.036992162
9	0xbcc49b06	-0.023999702
10	0x3d0beb69	0.03416005
11	0x3d1fc274	0.039003804
12	0x3d5fe730	0.054663837
13	0x3c6e7675	0.01455461
14	0xbc2864f6	-0.010277977
15	0xbd389729	-0.045066033
16	0x3cd3ca40	0.025853276
17	0xbc442493	-0.011971611
18	0xba8b4a3a	-0.001062698
19	0xbceea1da	-0.029129911
20	0xbc6f71df	-0.014614551
21	0x3d41fc2f	0.04735964
22	0x3d287518	0.041127294
23	0x3c29c9d7	0.010363064
24	0x3d024acf	0.031809624
25	0x3d3e3086	0.046432994
26	0xbd7fa692	-0.062414713
27	0xbd65d253	-0.056108784
28	0x3d7aec63	0.061260592
29	0xbd075034	-0.033035472
30	0x3c0eed00	0.008723497
31	0xbc36321c	-0.011120345
32	0xbd88ef43	-0.066862606
33	0xbd746670	-0.059668005
34	0xbd328f58	-0.043593735
35	0x3d02f379	0.031970475
36	0x3ced1a99	0.028943347
37	0xbd8cb92a	-0.06871255
38	0xbd57ca43	-0.052683126
39	0xbb8dd057	-0.0043278146
40	0x3c631257	0.013859353
41	0x3d275a2b	0.040857475
42	0x3ce5febc	0.028075568
43	0x3c757918	0.014982484
44	0x3d752af3	0.059855413
45	0xbcbd9e02	-0.023146633
46	0x3cee36ff	0.029078959
47	0xbd53a890	-0.051674426
48	0x3c93f72a	0.018062193
49	0x3d212dc2	0.03935028
50	0xbbf1cb77	-0.007378991
51	0xbcb94947	-0.02261795
52	0x3ae2f9e3	0.0017316904
53	0x3ca8d0de	0.020607408
54	0xbd461c65	-0.048366923
55	0xbd51bed3	-0.051207375
56	0xbd6667bf	-0.056251284
57	0xbcc37c4a	-0.023862977
58	0xbd6d5d4d	-0.057950307
59	0x3d8c2a19	0.06843967
60	0x3da5f546	0.08103423
61	0xbd36f13e	-0.04466366
62	0xbb60bba7	-0.0034291537
63	0x3d75b26c	0.05998461
64	0xbd8dce12	-0.069240704
65	0x3d416ddd	0.047223914
66	0x3bfdead6	0.007748942
67	0x3d527afb	0.051386815
68	0x3d93cd86	0.07216935
69	0xbd1cb8c6	-0.03826215
70	0x3c9347e8	0.017978624
71	0x3d2b5021	0.041824464
72	0x3cf802d1	0.03027478
73	0x3d8bd21d	0.06827185
74	0x3c850b04	0.016240604
75	0x3d052858	0.032509178
76	0xbd1030a1	-0.035202626
77	0x3d3ffdf1	0.046873037
78	0x3c8f8ce6	0.01752324
79	0x3d179a2c	0.037012264
80	0x3cacf536	0.02111302
81	0xbcdbca81	-0.02682996
82	0x3d80ec53	0.06295075
83	0xbd478165	-0.048707385
84	0x3d83d21e	0.06436561
85	0x3bb7d78a	0.005610411
86	0xbd268413	-0.0406533
87	0x3c3f2be3	0.011668178
88	0xbdab3c01	-0.08361054
89	0xbcdf4085	-0.027252445
90	0x3c58c7c2	0.01323122
91	0x3c166414	0.009179134
92	0x3cbecf11	0.023292096
93	0xbd8a34f6	-0.06748383
94	0xbc781f25	-0.015144144
95	0x3d17a6b4	0.037024215
96	0x3c601760	0.013677448
97	0xbcff1771	-0.031139107
98	0x3d1d0c2a	0.03834168
99	0x3d184b70	0.037181318
100	0x3d2849f0	0.041086137
101	0x39e5ebe9	0.0004385405
102	0x3d00ff0c	0.03149323
103	0xbc937631	-0.018000694
104	0x3d07eebb	0.033186655
105	0xbcf04446	-0.02932943
106	0xbcc6674f	-0.024219183
107	0xbbefbea0	-0.0073164254
108	0xbba0756a	-0.0048968093
109	0x3d59f4da	0.053212024
110	0xbb6153b7	-0.0034382173
111	0xbcceff1a	-0.025268126
112	0x3d2cd27f	0.042192932
113	0xba417f45	-0.00073813304
114	0x3c7f62c9	0.015587517
115	0x3d5d23e3	0.053989302
116	0x3caaeb2e	0.020864096
117	0xbd326ee0	-0.04356277
118	0xbc4e52c7	-0.012592978
119	0x3d86fc04	0.06591037
120	0x3b5b13c4	0.003342853
121	0xbca45901	-0.020061972
122	0xbd2c457e	-0.04205846
123	0x3c8940c6	0.01675452
124	0x3d3ac6a9	0.045599613
125	0x3d1a4e2d	0.03767221
126	0xbab890b5	-0.0014081212
127	0xbcc44f8a	-0.023963708
128	0x3d8291a0	0.06375432
129	0xbd353576	-0.044240437
130	0xbd808dd1	-0.06277049
131	0x3d23ef87	0.040023353
132	0x3cdf58a1	0.027263941
133	0x3b5563b4	0.0032560648
134	0x3bb53393	0.0055298298
135	0xbcaa81e5	-0.020813892
136	0x3d05eea5	0.032698292
137	0xbd006c8c	-0.03135352
138	0xbc71aecc	-0.0147511475
139	0x3d4858c9	0.048912797
140	0xbd765a78	-0.06014487
141	0x3d92d071	0.07168663
142	0xbb5ebd81	-0.0033987465
143	0xbc6598f3	-0.014013517
144	0x3d5c1459	0.053730343
145	0x3c321a69	0.0108705545
146	0x3d3428d3	0.043984246
147	0xbd5ec821	-0.054390077
148	0xbca3e421	-0.020006241
149	0x3c4cb135	0.012493421
150	0x3d5832a4	0.05278267
151	0xbc7a309c	-0.015270378
152	0xbd813c50	-0.06310332
153	0x3d1e9830	0.038719356
154	0x3a3709d7	0.0006982362
155	0xbd49fd27	-0.04931369
156	0xbd308620	-0.04309666
157	0xbc2ebdda	-0.010665381
158	0xbc8d09a3	-0.01721651
159	0xbcf6e93d	-0.030140514
160	0xbd5a093f	-0.053231474
161	0x3b528d7f	0.0032127795
162	0xbd4e3bbf	-0.050349947
163	0xbd49016a	-0.049073614
164	0x3c455a9d	0.01204553
165	0xbd273ad7	-0.0408276
166	0xbc9a0802	-0.018802647
167	0xbd2b586e	-0.04183238
168	0x3cf22c28	0.029562071
169	0x3d8b700f	0.06808483
170	0xbd527dfb	-0.051389676
171	0xbd96f4b1	-0.0737089
172	0xbcb178b8	-0.021664008
173	0x3d774ef6	0.060378037
174	0x3d88f7b8	0.066878736
175	0xbc4e7a47	-0.012602395
176	0xbd841777	-0.06449788
177	0xbcbb06b8	-0.022830352
178	0xbd8d08a6	-0.06886415
179	0x3cab7d4a	0.020933766
180	0xbc0a2055	-0.00843056
181	0xbd337ffe	-0.043823235
182	0x3d327717	0.043570604
183	0xbd396bd3	-0.045268845
184	0x3c9f8f9a	0.019477654
185	0x3c9c7f90	0.019103795
186	0xbd20cf00	-0.03925991
187	0xbd2031d0	-0.039110005
188	0x3d90e910	0.07075703
189	0xbd357450	-0.044300377
190	0x3d7bc3ae	0.06146591
191	0x3d007419	0.03136072
192	0x3ccbbd49	0.024870532
193	0xbbbec9f2	-0.0058224136
194	0x3cc99993	0.024609363
195	0x3d5b1688	0.053488284
196	0xbd945c53	-0.07244172
197	0x3cd75b1f	0.026288567
198	0xbd7b2750	-0.06131679
199	0xbb109c6c	-0.002206589

hl3.weight f4 [200, 200]
0	0xbd2c96aa	-0.042135872
1	0x3c38dbc5	0.011282866
2	0xbd6ed67a	-0.05831001
3	0xbd47e6d1	-0.048804108
4	0x3d30637e	0.043063633
5	0x3c01549b	0.007893707
6	0x3d4fa809	0.05069736
7	0xbcf69d79	-0.030104386
8	0x3d635912	0.055504866
9	0x3cdb7ace	0.026791956
10	0xbd157402	-0.036487587
11	0x3c0cc590	0.008592024
12	0xbc84e8c1	-0.016224267
13	0xbdb39dc1	-0.087703235
14	0xbc8134e6	-0.015772294
15	0xbcb061c6	-0.021530997
16	0xbd6d9edd	-0.058012832
17	0x3d839535	0.06424943
18	0xbd7413f8	-0.059589356
19	0xbb8a42ae	-0.0042193746
20	0xbcbfd44f	-0.023416666
21	0xbd7d55b4	-0.06184931
22	0x3cd5e5c2	0.026110534
23	0x3d860e57	0.06545704
24	0xbda3317e	-0.07968424
25	0xbbc83ee0	-0.006111011
26	0x3d4f5865	0.05062141
27	0xbd77fe28	-0.060545117
28	0xbd39faef	-0.045405325
29	0x3cfd92a5	0.030953715
30	0x3d8e19ee	0.069385394
31	0xbc91d12f	-0.017799942
32	0x3d5d8d24	0.05408968
33	0xbae44097	-0.0017414269
34	0x3b51ba50	0.003200192
35	0xbd7d699c	-0.061868295
36	0x3d7a5fbb	0.061126452
37	0xbcfc85ea	-0.030825574
38	0x3b0ad6f8	0.002118526
39	0xbd5fe954	-0.05466588
40	0xbcc5b63f	-0.024134753
41	0xbcd671ee	-0.026177373
42	0xbd0f4141	-0.03497434
43	0xbc575b2e	-0.0131442975
44	0x3c450edc	0.0120274685
45	0xbcfbb751	-0.03072706
46	0x3b83b20f	0.004019029
47	0xbd7d452c	-0.061833546
48	0xbd114013	-0.035461497
49	0xbd8ed270	-0.069737315
50	0x3d2ebfb5	0.042663295
51	0xbcaf2da2	-0.021384064
52	0x3d819d57	0.06328838
53	0x3bba1009	0.005678181
54	0x3d3a6ece	0.045515828
55	0xb9f36aa7	-0.00046428034
56	0xbc87f3d3	-0.016595757
57	0x3d250dba	0.040296294
58	0x3c0f5d13	0.008750218
59	0x3cdf2ad8	0.02724211
60	0x3cdbfb60	0.026853263
61	0xbd69fcfc	-0.05712603
62	0xbcf8ad7d	-0.030356163
63	0x3d10883b	0.03528617
64	0x3c19b934	0.009382535
65	0x3d639c6c	0.055569097
66	0xbd55285f	-0.052040454
67	0xbc32ce0d	-0.010913384
68	0x3cbddcc8	0.023176566
69	0xbc80b60f	-0.015711812
70	0xbc91e23d	-0.017808074
71	0xbd70b47b	-0.05876587
72	0x3d62f1e4	0.055406466
73	0xbd53f643	-0.051748525
74	0xbd50a309	-0.050936732
75	0x3ba71ad4	0.0050996337
76	0x3b4f8cd1	0.0031669626
77	0x3c3f39dd	0.0116715105
78	0x3d02304f	0.031784352
79	0x3d4475ca	0.047963895
80	0x3d3e1cc6	0.04641416
81	0x3d3b0638	0.045660228
82	0xbcfcba86	-0.03085066
83	0xbd22c8b0	-0.03974217
84	0xbd21d1fc	-0.039506897
85	0xbd5262f6	-0.051363908
86	0x3d565953	0.05233128
87	0x3c9bd8f9	0.019024359
88	0x3cd80ec1	0.026374223
89	0x3d29a72f	0.041419204
90	0x3d91b924	0.07115391
91	0x3d0f1324	0.034930363
92	0x3d2d8249	0.042360578
93	0xbd7a4e97	-0.061110105
94	0x3d758e3a	0.05995009
95	0xbd46cf2e	-0.048537426
96	0x3d479b64	0.048732176
97	0xbd5bd1a8	-0.05366674
98	0x3c5e481b	0.013566996
99	0xbda18e81	-0.078885086
100	0xbcd2a229	-0.02571209
101	0xbc0df1b2	-0.008663582
102	0xbd602e41	-0.05473161
103	0xbd25c0eb	-0.040467184
104	0xbd6b60a4	-0.05746521
105	0xbc60434d	-0.013687921
106	0x3c9885a4	0.018618412
107	0xbd293abc	-0.04131578
108	0x3c531cb9	0.012885266
109	0x3d5eed5d	0.054425586
110	0x3d3baff8	0.045822114
111	0xbd99d8ac	-0.0751203
112	0x3d7f47fd	0.062324513
113	0x3d6bf5d2	0.05760748
114	0xbd873ede	-0.06603788
115	0xbd7821e8	-0.06057921
116	0x3d321111	0.043473307
117	0xbd9a3eca	-0.07531507
118	0xbd4864b9	-0.04892418
119	0xbc61f066	-0.013790226
120	0x3d834299	0.06409187
121	0x3d6340a0	0.055481553
122	0xbc143c82	-0.009047629
123	0x3cc2a683	0.02376104
124	0xbd4e8cd7	-0.050427284
125	0xbba54273	-0.0050433218
126	0xbd500506	-0.05078604
127	0xbc21d2fc	-0.009876963
128	0x3ccc2e09	0.024924295
129	0xbd17fbbd	-0.03710531
130	0x3cd88c81	0.026434185
131	0x3d86091d	0.06544707
132	0xbcf3f752	-0.029781017
133	0x3cf398f2	0.029736016
134	0x3c8a3f40	0.016875863
135	0x3d28b9d1	0.041192833
136	0xbcfc782f	-0.030819027
137	0x3d4cd9b9	0.050012324
138	0x3d1aafa4	0.03776516
139	0xbcbc9a66	-0.023022842
140	0xbcb74587	-0.02237202
141	0x3d8a865e	0.0676391
142	0xbd2e8185	-0.04260399
143	0x3b84b74d	0.0040501715
144	0x3d1d8f59	0.038466785
145	0x3cc0c507	0.02353145
146	0xbd83fac9	-0.06444318
147	0xbd725387	-0.05916169
148	0xbb053f30	-0.0020331852
149	0x3bd14bb9	0.0063872007
150	0x3d954a15	0.07289521
151	0x3dad33ec	0.08457169
152	0x3c58ca62	0.013231846
153	0xbc51162d	-0.012761635
154	0xbc5c1441	-0.013432563
155	0x3d5ff669	0.054678354
156	0x3b91a74d	0.0044449926
157	0xbd593c5f	-0.05303609
158	0x3c7d7017	0.015468619
159	0xbcaf1267	-0.02137108
160	0x3ce89218	0.028389975
161	0x3d0f645b	0.035007816
162	0xbcc7a161	-0.024368944
163	0x3d38de23	0.04513372
164	0xbd16927e	-0.0367608
165	0xbd455e14	-0.048185423
166	0xbc1248ba	-0.008928472
167	0xbc17df74	-0.009269584
168	0xbba51640	-0.005038053
169	0x3d74f20e	0.059801154
170	0x3b460633	0.0030216097
171	0xbd59c603	-0.053167354
172	0x3d048b6f	0.032359537
173	0x3cb72eb0	0.02236113
174	0x3d0dfb14	0.034663275
175	0x3cae650d	0.02128842
176	0xbd6086d9	-0.0548161
177	0x3cbbc0e5	0.022919128
178	0x3ca30ce5	0.01990361
179	0xbb198cd8	-0.0023429897
180	0xbd2e96a3	-0.042624127
181	0x3c913b6b	0.017728528
182	0x3d57bfa6	0.052673005
183	0xbca41155	-0.020027796
184	0x3da2fcc5	0.07958368
185	0x3cd7283c	0.026264302
186	0xbd4a098a	-0.049325503
187	0x3d28baab	0.041193645
188	0x3c80bc68	0.01571484
189	0x3cd1c02c	0.02560433
190	0x3d4222be	0.047396414
191	0x3c67d4d9	0.014149868
192	0x3ca57021	0.020195069
193	0x3d44d9ea	0.04805938
194	0x3cea0148	0.028565064
195	0x3c9d117a	0.019173373
196	0xbd2963d6	-0.041354977
197	0xbd251ad6	-0.040308796
198	0xbc97f12b	-0.018547615
199	0xbc984bbf	-0.018590806
200	0xbda45702	-0.08024408
201	0xbbb9482d	-0.005654356
202	0x3d91158d	0.070841886
203	0x3cdf7deb	0.027281722
204	0x3c653847	0.013990468
205	0xbd921194	-0.07132259
206	0xbb5a8032	-0.003334057
207	0xbc35db83	-0.011099699
208	0x3d62209f	0.05520689
209	0x3d357b28	0.044306904
210	0xbd540184	-0.051759258
211	0x3d1031d2	0.035203762
212	0xbc40ef51	-0.0117758075
213	0xbdd24f21	-0.10268999
214	0x3c9f2de4	0.019431062
215	0x3c8b4cf8	0.017004475
216	0xbd53d7a2	-0.051719315
217	0xbd6b4126	-0.057435177
218	0x3cf558b3	0.029949522
219	0x3d91cb31	0.07118834
220	0x3d3c35ae	0.04594963
221	0x3cd9a215	0.026566545
222	0xbda4cbba	-0.0804667
223	0x3d6f883b	0.05847953
224	0x3cdd56db	0.027018955
225	0x3d2e7fac	0.042602226
226	0xbbe46e5b	-0.006971163
227	0x3cf16451	0.02946678
228	0x3b62b8b2	0.003459495
229	0x3d08d472	0.03340573
230	0xbcdafc75	-0.026731709
231	0x3d4dd2c9	0.05024985
232	0x3d5acd5c	0.053418502
233	0x3d014932	0.031563945
234	0xbd0631af	-0.032762226
235	0xbd2cafd4	-0.04215987
236	0x3d39d4b2	0.045368858
237	0x3d2ffb6d	0.042964388
238	0xbd16fc11	-0.036861483
239	0x3d77c120	0.060486913
240	0x3d3ce234	0.04611416
241	0x3d2ed945	0.042687673
242	0xbc654411	-0.013993279
243	0x3c1e8602	0.009675505
244	0xbd8ebf60	-0.06970096
245	0xbc97a568	-0.018511489
246	0xbd31ae6c	-0.043379232
247	0x3cc61f98	0.024184987
248	0x3aa978d3	0.0012929685
249	0x3d0941d9	0.033510063
250	0x3c88d11a	0.01670127
251	0x3d4f10f1	0.050553266
252	0xbc5eae80	-0.013591409
253	0x3d8adf64	0.0678089
254	0x3c4e4d55	0.01259168
255	0x3b200308	0.002441587

hl3.bias f4 [200]
0	0xbcd19852	-0.025585327
1	0xbd15b441	-0.036548857
2	0xbd2abf84	-0.04168655
3	0xbc6edf4d	-0.014579606
4	0x3d53c461	0.051700953
5	0x3b9b9ed6	0.0047491593
6	0xbd3d6622	-0.04623998
7	0x3d1b5ca3	0.037930142
8	0x3d6828f1	0.05667967
9	0x3c2159bc	0.0098480545
10	0xbd6a7648	-0.057241708
11	0xbd1c00c7	-0.03808668
12	0xbd1ba2a7	-0.037996914
13	0xbcfe48fc	-0.031040661
14	0xbc56eba8	-0.013117708
15	0x3d507f47	0.05090263
16	0xbd4b26b6	-0.049597465
17	0x3cf9d75e	0.030498203
18	0x3d5c096c	0.053719923
19	0xbce6fb50	-0.028196007
20	0x3d20ca96	0.0392557
21	0x3bd58371	0.006515913
22	0xbd58aed6	-0.05290111
23	0xbce7239a	-0.028215218
24	0x3d46179f	0.04836237
25	0xbc543068	-0.012950994
26	0x3d1c832d	0.038211036
27	0xbc0507b0	-0.008119509
28	0x3d51d208	0.051225692
29	0xbd4c0438	-0.04980871
30	0x3c535251	0.012898044
31	0x3d1f02a5	0.03882088
32	0xbd2bf49b	-0.04198132
33	0xbd245afa	-0.040125825
34	0xbd0fe4ae	-0.035130195
35	0xbd5ec7ab	-0.054389637
36	0x3d445184	0.0479293
37	0x3d8d9fbb	0.06915232
38	0x3d496a6c	0.049173757
39	0xbd324269	-0.043520365
40	0xbce3ed31	-0.027823063
41	0x3c0c9f9d	0.008582977
42	0xbd51df50	-0.051238358
43	0xbc957f71	-0.018249245
44	0xbcead886	-0.0286677
45	0x3c8444ab	0.016146025
46	0x3d5ad00a	0.053421058
47	0x3d8556bd	0.06510685
48	0x3d19de58	0.03756556
49	0x3d40a280	0.047029972
50	0x3d3ddd95	0.046353895
51	0x3b99d349	0.0046943766
52	0xbcc06669	-0.023486333
53	0x3b43c96e	0.00298747
54	0xbd7f444a	-0.062320985
55	0x3d356a61	0.044290904
56	0xbcd05bac	-0.025434338
57	0xbd7ab296	-0.06120547
58	0xbc94a723	-0.018146103
59	0xbbf44eaf	-0.007455669
60	0xbc187159	-0.009304368
61	0xbce962e7	-0.028489543
62	0xbd4352a2	-0.047686227
63	0x3bb3ca80	0.0054867864
64	0xbcce455f	-0.025179563
65	0x3cf95342	0.030435208
66	0x3d311582	0.043233402
67	0x3d373901	0.044732098
68	0xbd77aea4	-0.060469285
69	0x3d00ee04	0.03147699
70	0x3c673a30	0.014112994
71	0xbd1aad2c	-0.037762806
72	0xbc1035a7	-0.008801854
73	0x3d68ac94	0.05680521
74	0x3d34ca91	0.044138495
75	0x3cce848e	0.025209691
76	0x3d840a5e	0.0644729
77	0x3d47cea7	0.048781063
78	0x3b739fc4	0.0037174085
79	0x3ca58c79	0.020208584
80	0xbd3c1931	-0.045922462
81	0x3cd67ba8	0.02618201
82	0xbc1834ce	-0.009289933
83	0x3d1f25a8	0.03885427
84	0xbcd293ad	-0.025705183
85	0x3d5a2926	0.0532619
86	0x3b7f8433	0.003898871
87	0xbd925722	-0.071455255
88	0x3d0d7ca0	0.03454268
89	0x3cfcffa5	0.03088362
90	0x3d2c2995	0.042031843
91	0x3d4c47f3	0.049873304
92	0x3bfa7d1d	0.007644309
93	0xbbea03f1	-0.007141583
94	0xbc7a180b	-0.015264521
95	0x3cb18b86	0.021672975
96	0x3d5085fa	0.05090902
97	0x3b9fef3c	0.004880814
98	0xbd8316ad	-0.064008094
99	0xbd56c76d	-0.05243628
100	0xbd06256d	-0.032750536
101	0xbce7d896	-0.028301518
102	0x3ca9ab34	0.020711519
103	0xbd37a29e	-0.04483282
104	0x3b58a7b2	0.0033058939
105	0xbb17c172	-0.0023156074
106	0x3d28d6ef	0.0412206
107	0xbd120dd9	-0.035657737
108	0xbd3ec1f2	-0.04657168
109	0xbcbb1c8f	-0.022840766
110	0xbd1e90aa	-0.03871218
111	0x3c0f8bae	0.00876133
112	0xbd422840	-0.047401667
113	0x3c878835	0.01654444
114	0xbd7fd383	-0.062457573
115	0xbd80afb4	-0.06283513
116	0xbc992187	-0.018692745
117	0xbbd15bd6	-0.0063891215
118	0x3d7835d0	0.060598195
119	0xbd2901a2	-0.041261323
120	0x3d396095	0.045258123
121	0xbbb50594	-0.0055243466
122	0x3cea2964	0.02858419
123	0x3d632186	0.055451892
124	0x3d67f380	0.056628704
125	0x3abdd98a	0.0014484387
126	0xbd4ffda7	-0.05077901
127	0xbd74d666	-0.05977478
128	0xbbbf29d1	-0.0058338423
129	0xbc797bc5	-0.015227263
130	0x3d92ca74	0.07167521
131	0xbd26f629	-0.0407621
132	0xbc70f543	-0.014706912
133	0x3d6580bb	0.05603097
134	0xbd1d7a25	-0.038446564
135	0xbd588d3b	-0.052869063
136	0xbd4cb386	-0.049975894
137	0x3bbb85dd	0.005722745
138	0xbc89401d	-0.016754204
139	0x3d33ec9b	0.043926816
140	0xbcb10ef6	-0.02161358
141	0xbb38ad5d	-0.0028179504
142	0x3ca203e5	0.019777248
143	0x3d3ec29c	0.046572313
144	0x3c03c808	0.008043297
145	0x3b150934	0.0022741081
146	0xbcd852c9	-0.026406663
147	0xbd50ff86	-0.051024936
148	0xbd4b6e23	-0.04966558
149	0xbc9eb63f	-0.019374011
150	0xbce5d37a	-0.028054941
151	0xbc7b6958	-0.01534494
152	0x3c982abf	0.01857507
153	0xbd241b97	-0.040065374
154	0xbd7aca0d	-0.061227847
155	0x3d23207e	0.03982591
156	0x3c5ea781	0.013589741
157	0xbc5052b9	-0.012715035
158	0xbd2bbd39	-0.041928504
159	0x3bcddbec	0.0062823202
160	0xbcbce449	-0.023058074
161	0xbd345e54	-0.04403527
162	0x3c8823d8	0.016618654
163	0x3ce0ae4d	0.027426863
164	0xbd601714	-0.05470951
165	0xbae02b4a	-0.0017102745
166	0x3d5b27b8	0.053504676
167	0xbd489741	-0.048972372
168	0x3d1fbf04	0.039000526
169	0x3bdd66ba	0.0067566307
170	0x3d329664	0.043600455
171	0xbcafa5e7	-0.021441413
172	0xbd0069b9	-0.031350825
173	0x3cb53ace	0.022122767
174	0x3d3b947d	0.045795906
175	0xbca36b77	-0.019948704
176	0xbc349c5d	-0.011023608
177	0x3d4617ad	0.048362423
178	0xbd028d53	-0.03187306
179	0xbcb66545	-0.022265086
180	0xba63f323	-0.0008695593
181	0xbd6d4c06	-0.05793383
182	0xbc9588d4	-0.018253721
183	0x3d5947fd	0.05304717
184	0xbccf8ab8	-0.025334701
185	0x3d54d01e	0.05195629
186	0x3d7450b3	0.059647273
187	0x3d27f0dc	0.041001186
188	0x3c9b2924	0.018940516
189	0x3cb3beb5	0.021941522
190	0xbbd6d647	-0.0065563056
191	0x3bb9d0cf	0.005670644
192	0x3d6751dc	0.05647455
193	0xbc9bc1b0	-0.019013256
194	0xbb1da6fe	-0.0024055834
195	0xbd1a5aad	-0.03768413
196	0xbca4e101	-0.020126821
197	0xbd8451db	-0.06460925
198	0x3c4a2c6f	0.012339695
199	0x3d704bfd	0.058666218

hl4.weight f4 [200, 200]
0	0xbcc96073	-0.024582123
1	0xbd1aa992	-0.03775937
2	0x3d3a4443	0.045475256
3	0x3c84edba	0.016226638
4	0xbc6cb674	-0.014447797
5	0xbd15ea26	-0.036600254
6	0x3d1bde2e	0.038053684
7	0xbd809310	-0.0627805
8	0x3bc0ce81	0.005883992
9	0x3cd18367	0.025575353
10	0x3b2fc8ba	0.0026822523
11	0x3d597290	0.05308777
12	0x3d800b9d	0.06252215
13	0xbd1fa257	-0.03897318
14	0xbd6a5114	-0.05720623
15	0x3c9f6f05	0.019462118
16	0x3cf253b7	0.029580934
17	0x3d90eb2b	0.07076105
18	0xbb52105e	-0.0032053213
19	0xbd92de98	-0.07171363
20	0x3d1ee30a	0.03879074
21	0xbd7f06fd	-0.062262524
22	0x3ce41c1f	0.02784544
23	0xbb69e8ff	-0.0035691855
24	0x3d882e32	0.06649436
25	0x3d37bb1f	0.044856187
26	0xbd7af6f3	-0.061270665
27	0x3d95740f	0.07297527
28	0xbca8a8fc	-0.02058839
29	0x3d7eb672	0.062185712
30	0x3d2a3a12	0.041559286
31	0xbc527463	-0.012845132
32	0x3be8f3a5	0.007109123
33	0xbcc3b00a	-0.023887653
34	0xbc590ad9	-0.013247215
35	0xbd14ec50	-0.036358178
36	0xbb26e3fc	-0.002546548
37	0x3cc5c716	0.024142783
38	0x3d119f81	0.035552505
39	0x3cac9566	0.021067332
40	0xbd5a2563	-0.05325831
41	0xbcd5f1d1	-0.026116284
42	0xbd3a1a5f	-0.045435306
43	0xbd2d44e3	-0.042302024
44	0xbd6256f2	-0.0552587
45	0xbd660d3c	-0.056164965
46	0xbd4358d7	-0.047692146
47	0xbbd4f686	-0.0064991144
48	0xbd83b706	-0.06431393
49	0x3d842623	0.064525865
50	0xbcd2ac72	-0.025716994
51	0x3c25d78a	0.010122189
52	0xbc7597d4	-0.014989812
53	0x3cf28784	0.029605635
54	0x3cdc2dbb	0.026877275
55	0x3bcdb9c3	0.006278248
56	0xbd307071	-0.043075982
57	0xbd310007	-0.043212917
58	0x3d583d2e	0.05279272
59	0x3afe65b0	0.0019408967
60	0xbd3ca26a	-0.046053328
61	0x3d8495db	0.06473895
62	0xbd3c298a	-0.045938052
63	0x3bf4a060	0.0074654073
64	0xbd5216e7	-0.051291373
65	0x3cb80e8c	0.022467874
66	0xbd268bfc	-0.040660843
67	0x3ce25a22	0.02763087
68	0xbce85ed9	-0.02836554
69	0x3d3a0515	0.045415003
70	0x3d7948c6	0.060860418
71	0xbc17f59b	-0.0092748655
72	0x3d7cae7d	0.061689842
73	0xbb6b8ff4	-0.0035943957
74	0xbcf3c8ad	-0.029758776
75	0x3d23a664	0.039953604
76	0x3cdc0b3a	0.026860822
77	0xbcdd13bb	-0.026986947
78	0x3d8702b5	0.06592313
79	0xbc382ee8	-0.011241652
80	0xbd229b8b	-0.03969912
81	0xbd83344a	-0.06406458
82	0x3d0bb24a	0.034105577
83	0xbb86b68f	-0.004111118
84	0x3d887d89	0.06664569
85	0x3d09f0b7	0.03367683
86	0xbcc1489b	-0.023594191
87	0xbc81e6ab	-0.015857061
88	0x3c5ce139	0.013481432
89	0x3d057e19	0.03259096
90	0xbd52d91b	-0.05147658
91	0xbc695135	-0.014240553
92	0x3d4a2ef8	0.0493612
93	0xbc40a4f7	-0.011758081
94	0x3ce2a435	0.02766619
95	0x3d44ee5d	0.048078883
96	0xbd0360df	-0.032074805
97	0xbd400125	-0.04687609
98	0x3c8417e3	0.016124671
99	0x3d213234	0.039354518
100	0xbcf64c82	-0.030065779
101	0x3afca71b	0.0019275876
102	0x3c4082ac	0.011749905
103	0x3d20a234	0.03921719
104	0x3c20ac8f	0.009806766
105	0x3d0f5bbd	0.034999598
106	0x3d63303a	0.055465914
107	0x3d7ddfbd	0.06198095
108	0xbd117254	-0.035509422
109	0x3cb34c6d	0.021887029
110	0xbcc653b3	-0.024209833
111	0xbd742f07	-0.05961516
112	0xbd4365a9	-0.047704373
113	0x3c40d5bd	0.011769709
114	0x3d1f1ce9	0.03884593
115	0xbd5b99e8	-0.053613573
116	0x3d1d3bb2	0.038387008
117	0x3d000b5e	0.03126084
118	0xbd2851f4	-0.04109378
119	0x3c575488	0.013142712
120	0xbb9e0e8a	-0.0048235105
121	0xbd604381	-0.054751877
122	0x3d43a137	0.04776117
123	0xbd654b26	-0.05597987
124	0xbc92294a	-0.017841954
125	0x3c860206	0.016358387
126	0xbd2f55d3	-0.042806458
127	0x3d8c84e5	0.06861285
128	0xbd5e92c1	-0.054339174
129	0x3c4ed45f	0.012623875
130	0xbd8cb5e1	-0.06870628
131	0x3c3b3ca4	0.011428032
132	0x3ca1b99e	0.01974183
133	0xbacdc8e8	-0.0015700134
134	0x3cd109e1	0.025517406
135	0x38347d5d	4.3032098e-05
136	0xbd817c3c	-0.06322524
137	0xbb93800a	-0.0045013474
138	0x3d414a16	0.047189794
139	0x3c89580c	0.016765617
140	0xba3fe93a	-0.0007320825
141	0x3d1240c3	0.035706293
142	0xbb865dc3	-0.0041005327
143	0x3d142262	0.036165603
144	0xbd469493	-0.048481535
145	0x3d81265d	0.06306145
146	0xbd45a0a4	-0.048248902
147	0x3cea33d7	0.028589172
148	0xbd7a97e9	-0.06118003
149	0xbd8b8d6c	-0.068140835
150	0xbd2727db	-0.040809494
151	0x3d473725	0.048636574
152	0xbd747393	-0.059680533
153	0xbd83498c	-0.06410512
154	0xbc0d2189	-0.008613952
155	0x3cb11900	0.021618366
156	0x3c9af142	0.018913869
157	0xbcd21ff8	-0.02565001
158	0xbd064514	-0.03278072
159	0xbd8adf48	-0.06780869
160	0x3d10537b	0.035235863
161	0x3cc0b71b	0.023524811
162	0xbcd942eb	-0.026521167
163	0x3d5d6827	0.054054406
164	0xbd2ad0c3	-0.041702997
165	0x3c84c0ee	0.016205277
166	0x3cc41ecf	0.023940472
167	0xbcfe2a86	-0.031026136
168	0xbcc7a4bf	-0.02437055
169	0x3ba77db0	0.0051114187
170	0xbd70c922	-0.058785565
171	0x3d512634	0.051061824
172	0xbcf9a26e	-0.03047296
173	0xba44317d	-0.0007484181
174	0x3cac8ccb	0.02106323
175	0xbd7e36ea	-0.06206409
176	0x3d8ce0ef	0.0687884
177	0x3d5d439a	0.054019548
178	0xbce012d5	-0.02735273
179	0xbc322b30	-0.0108745545
180	0xbbd5e9cf	-0.0065281163
181	0x3d502fcc	0.050826833
182	0x3d663369	0.056201372
183	0x3d4ae484	0.049534336
184	0x3cfb9363	0.030709928
185	0x3d88ef59	0.06686277
186	0x3d05ad38	0.032635897
187	0xbbd0e07c	-0.006374417
188	0xbd2e6701	-0.0425787
189	0xbd3ef0c5	-0.046616334
190	0x3d88e096	0.06683461
191	0x3d752e52	0.059858628
192	0xbd6dd3b0	-0.05806321
193	0x3bfe844a	0.007767235
194	0xbce5825b	-0.02801626
195	0xbd878fb9	-0.0661921
196	0x3c9adc84	0.018903978
197	0x3c4024a1	0.011727483
198	0xbcf931ff	-0.030419348
199	0xbd5c9fc3	-0.0538633
200	0x3ce63386	0.02810074
201	0xbd58d404	-0.05293657
202	0xbcb14b1c	-0.02164226
203	0x3c6eb25d	0.014568892
204	0xbcaf2ddc	-0.021384172
205	0x3d8e27c0	0.069411755
206	0xbd5473d9	-0.051868293
207	0xbd8beeb4	-0.068326384
208	0x3c5b8e99	0.013400697
209	0x3cc37685	0.023860225
210	0x3af92fb9	0.0019011415
211	0xbcb09585	-0.021555671
212	0xbd1ed4a2	-0.038777
213	0xbd3838d4	-0.04497607
214	0x3c477068	0.012172796
215	0xbd8b7704	-0.0680981
216	0x3d5ed718	0.054404348
217	0x3d5bd150	0.053666413
218	0x3d34c6d9	0.04413495
219	0xbc88713f	-0.016655562
220	0x3c7d1083	0.015445831
221	0x3c6d9736	0.0145013835
222	0x3cde3929	0.027126865
223	0x3d5ee198	0.05441436
224	0x3d4defb8	0.05027744
225	0x3d1577a3	0.036491048
226	0xbc959719	-0.018260526
227	0xbc1ed014	-0.009693164
228	0x3d8be2c5	0.06830362
229	0x3d931522	0.07181765
230	0x3d8c86c0	0.06861639
231	0x3da7b406	0.081886336
232	0x3cc0e63c	0.023547284
233	0xbc69b109	-0.0142634
234	0x3d143e72	0.036192365
235	0xbc8e6686	-0.017382871
236	0x3d8d9a83	0.069142364
237	0xba53481d	-0.0008059757
238	0x3d1d28df	0.038369056
239	0x3d28cfe4	0.041213885
240	0xbda77564	-0.08176687
241	0xbd7aa7d6	-0.061195217
242	0xbd516152	-0.051118203
243	0xbca52ff6	-0.020164471
244	0xbb5a531c	-0.0033313697
245	0x3c1c4d04	0.009539846
246	0xbd38f52d	-0.045155693
247	0xbcb31ce2	-0.021864358
248	0xbd58eac5	-0.05295827
249	0x3a726ef3	0.00092481
250	0xbd5d2dc9	-0.053998742
251	0xbcbd89c7	-0.023136986
252	0xbd3af747	-0.04564598
253	0xbd156397	-0.03647193
254	0xbd95f72e	-0.073225364
255	0x3d4943ff	0.04913711
